…
config        : Configure(type='cosine', batch_size=96, epochs=600, momentum=0.9, decay=0.0003, LR=0.025, LR_MIN=0.0001, auxiliary=True, auxiliary_weight=0.4, grad_clip=5.0, cutout=16, drop_path_prob=0.2)
genotype      : Genotype(normal=[('skip_connect', 0, 0.16), ('skip_connect', 1, 0.13), ('skip_connect', 0, 0.17), ('sep_conv_3x3', 2, 0.15), ('skip_connect', 0, 0.17), ('sep_conv_3x3', 2, 0.15), ('skip_connect', 0, 0.16), ('sep_conv_3x3', 2, 0.15)], normal_concat=[2, 3, 4, 5], reduce=None, reduce_concat=[2, 3, 4, 5])
init_channels : 36
layers        : 20
class_num     : 10
Network =>
NetworkCIFAR(
  (stem): Sequential(
    (0): Conv2d(3, 108, kernel_size=(3, 3), stride=(1, 1), padding=(1, 1), bias=False)
    (1): BatchNorm2d(108, eps=1e-05, momentum=0.1, affine=True, track_running_stats=True)
  )
  (cells): ModuleList(
    (0): Cell(
      (preprocess0): ReLUConvBN(
        (op): Sequential(
          (0): ReLU()
          (1): Conv2d(108, 36, kernel_size=(1, 1), stride=(1, 1), bias=False)
          (2): BatchNorm2d(36, eps=1e-05, momentum=0.1, affine=True, track_running_stats=True)
        )
      )
      (preprocess1): ReLUConvBN(
        (op): Sequential(
          (0): ReLU()
          (1): Conv2d(108, 36, kernel_size=(1, 1), stride=(1, 1), bias=False)
          (2): BatchNorm2d(36, eps=1e-05, momentum=0.1, affine=True, track_running_stats=True)
        )
      )
      (_ops): ModuleList(
        (0): Identity()
        (1): Identity()
        (2): Identity()
        (3): SepConv(
          (op): Sequential(
            (0): ReLU()
            (1): Conv2d(36, 36, kernel_size=(3, 3), stride=(1, 1), padding=(1, 1), groups=36, bias=False)
            (2): Conv2d(36, 36, kernel_size=(1, 1), stride=(1, 1), bias=False)
            (3): BatchNorm2d(36, eps=1e-05, momentum=0.1, affine=True, track_running_stats=True)
            (4): ReLU()
            (5): Conv2d(36, 36, kernel_size=(3, 3), stride=(1, 1), padding=(1, 1), groups=36, bias=False)
            (6): Conv2d(36, 36, kernel_size=(1, 1), stride=(1, 1), bias=False)
            (7): BatchNorm2d(36, eps=1e-05, momentum=0.1, affine=True, track_running_stats=True)
          )
        )
        (4): Identity()
        (5): SepConv(
          (op): Sequential(
            (0): ReLU()
            (1): Conv2d(36, 36, kernel_size=(3, 3), stride=(1, 1), padding=(1, 1), groups=36, bias=False)
            (2): Conv2d(36, 36, kernel_size=(1, 1), stride=(1, 1), bias=False)
            (3): BatchNorm2d(36, eps=1e-05, momentum=0.1, affine=True, track_running_stats=True)
            (4): ReLU()
            (5): Conv2d(36, 36, kernel_size=(3, 3), stride=(1, 1), padding=(1, 1), groups=36, bias=False)
            (6): Conv2d(36, 36, kernel_size=(1, 1), stride=(1, 1), bias=False)
            (7): BatchNorm2d(36, eps=1e-05, momentum=0.1, affine=True, track_running_stats=True)
          )
        )
        (6): Identity()
        (7): SepConv(
          (op): Sequential(
            (0): ReLU()
            (1): Conv2d(36, 36, kernel_size=(3, 3), stride=(1, 1), padding=(1, 1), groups=36, bias=False)
            (2): Conv2d(36, 36, kernel_size=(1, 1), stride=(1, 1), bias=False)
            (3): BatchNorm2d(36, eps=1e-05, momentum=0.1, affine=True, track_running_stats=True)
            (4): ReLU()
            (5): Conv2d(36, 36, kernel_size=(3, 3), stride=(1, 1), padding=(1, 1), groups=36, bias=False)
            (6): Conv2d(36, 36, kernel_size=(1, 1), stride=(1, 1), bias=False)
            (7): BatchNorm2d(36, eps=1e-05, momentum=0.1, affine=True, track_running_stats=True)
          )
        )
      )
    )
    (1): Cell(
      (preprocess0): ReLUConvBN(
        (op): Sequential(
          (0): ReLU()
          (1): Conv2d(108, 36, kernel_size=(1, 1), stride=(1, 1), bias=False)
          (2): BatchNorm2d(36, eps=1e-05, momentum=0.1, affine=True, track_running_stats=True)
        )
      )
      (preprocess1): ReLUConvBN(
        (op): Sequential(
          (0): ReLU()
          (1): Conv2d(144, 36, kernel_size=(1, 1), stride=(1, 1), bias=False)
          (2): BatchNorm2d(36, eps=1e-05, momentum=0.1, affine=True, track_running_stats=True)
        )
      )
      (_ops): ModuleList(
        (0): Identity()
        (1): Identity()
        (2): Identity()
        (3): SepConv(
          (op): Sequential(
            (0): ReLU()
            (1): Conv2d(36, 36, kernel_size=(3, 3), stride=(1, 1), padding=(1, 1), groups=36, bias=False)
            (2): Conv2d(36, 36, kernel_size=(1, 1), stride=(1, 1), bias=False)
            (3): BatchNorm2d(36, eps=1e-05, momentum=0.1, affine=True, track_running_stats=True)
            (4): ReLU()
            (5): Conv2d(36, 36, kernel_size=(3, 3), stride=(1, 1), padding=(1, 1), groups=36, bias=False)
            (6): Conv2d(36, 36, kernel_size=(1, 1), stride=(1, 1), bias=False)
            (7): BatchNorm2d(36, eps=1e-05, momentum=0.1, affine=True, track_running_stats=True)
          )
        )
        (4): Identity()
        (5): SepConv(
          (op): Sequential(
            (0): ReLU()
            (1): Conv2d(36, 36, kernel_size=(3, 3), stride=(1, 1), padding=(1, 1), groups=36, bias=False)
            (2): Conv2d(36, 36, kernel_size=(1, 1), stride=(1, 1), bias=False)
            (3): BatchNorm2d(36, eps=1e-05, momentum=0.1, affine=True, track_running_stats=True)
            (4): ReLU()
            (5): Conv2d(36, 36, kernel_size=(3, 3), stride=(1, 1), padding=(1, 1), groups=36, bias=False)
            (6): Conv2d(36, 36, kernel_size=(1, 1), stride=(1, 1), bias=False)
            (7): BatchNorm2d(36, eps=1e-05, momentum=0.1, affine=True, track_running_stats=True)
          )
        )
        (6): Identity()
        (7): SepConv(
          (op): Sequential(
            (0): ReLU()
            (1): Conv2d(36, 36, kernel_size=(3, 3), stride=(1, 1), padding=(1, 1), groups=36, bias=False)
            (2): Conv2d(36, 36, kernel_size=(1, 1), stride=(1, 1), bias=False)
            (3): BatchNorm2d(36, eps=1e-05, momentum=0.1, affine=True, track_running_stats=True)
            (4): ReLU()
            (5): Conv2d(36, 36, kernel_size=(3, 3), stride=(1, 1), padding=(1, 1), groups=36, bias=False)
            (6): Conv2d(36, 36, kernel_size=(1, 1), stride=(1, 1), bias=False)
            (7): BatchNorm2d(36, eps=1e-05, momentum=0.1, affine=True, track_running_stats=True)
          )
        )
      )
    )
    (2): Cell(
      (preprocess0): ReLUConvBN(
        (op): Sequential(
          (0): ReLU()
          (1): Conv2d(144, 36, kernel_size=(1, 1), stride=(1, 1), bias=False)
          (2): BatchNorm2d(36, eps=1e-05, momentum=0.1, affine=True, track_running_stats=True)
        )
      )
      (preprocess1): ReLUConvBN(
        (op): Sequential(
          (0): ReLU()
          (1): Conv2d(144, 36, kernel_size=(1, 1), stride=(1, 1), bias=False)
          (2): BatchNorm2d(36, eps=1e-05, momentum=0.1, affine=True, track_running_stats=True)
        )
      )
      (_ops): ModuleList(
        (0): Identity()
        (1): Identity()
        (2): Identity()
        (3): SepConv(
          (op): Sequential(
            (0): ReLU()
            (1): Conv2d(36, 36, kernel_size=(3, 3), stride=(1, 1), padding=(1, 1), groups=36, bias=False)
            (2): Conv2d(36, 36, kernel_size=(1, 1), stride=(1, 1), bias=False)
            (3): BatchNorm2d(36, eps=1e-05, momentum=0.1, affine=True, track_running_stats=True)
            (4): ReLU()
            (5): Conv2d(36, 36, kernel_size=(3, 3), stride=(1, 1), padding=(1, 1), groups=36, bias=False)
            (6): Conv2d(36, 36, kernel_size=(1, 1), stride=(1, 1), bias=False)
            (7): BatchNorm2d(36, eps=1e-05, momentum=0.1, affine=True, track_running_stats=True)
          )
        )
        (4): Identity()
        (5): SepConv(
          (op): Sequential(
            (0): ReLU()
            (1): Conv2d(36, 36, kernel_size=(3, 3), stride=(1, 1), padding=(1, 1), groups=36, bias=False)
            (2): Conv2d(36, 36, kernel_size=(1, 1), stride=(1, 1), bias=False)
            (3): BatchNorm2d(36, eps=1e-05, momentum=0.1, affine=True, track_running_stats=True)
            (4): ReLU()
            (5): Conv2d(36, 36, kernel_size=(3, 3), stride=(1, 1), padding=(1, 1), groups=36, bias=False)
            (6): Conv2d(36, 36, kernel_size=(1, 1), stride=(1, 1), bias=False)
            (7): BatchNorm2d(36, eps=1e-05, momentum=0.1, affine=True, track_running_stats=True)
          )
        )
        (6): Identity()
        (7): SepConv(
          (op): Sequential(
            (0): ReLU()
            (1): Conv2d(36, 36, kernel_size=(3, 3), stride=(1, 1), padding=(1, 1), groups=36, bias=False)
            (2): Conv2d(36, 36, kernel_size=(1, 1), stride=(1, 1), bias=False)
            (3): BatchNorm2d(36, eps=1e-05, momentum=0.1, affine=True, track_running_stats=True)
            (4): ReLU()
            (5): Conv2d(36, 36, kernel_size=(3, 3), stride=(1, 1), padding=(1, 1), groups=36, bias=False)
            (6): Conv2d(36, 36, kernel_size=(1, 1), stride=(1, 1), bias=False)
            (7): BatchNorm2d(36, eps=1e-05, momentum=0.1, affine=True, track_running_stats=True)
          )
        )
      )
    )
    (3): Cell(
      (preprocess0): ReLUConvBN(
        (op): Sequential(
          (0): ReLU()
          (1): Conv2d(144, 36, kernel_size=(1, 1), stride=(1, 1), bias=False)
          (2): BatchNorm2d(36, eps=1e-05, momentum=0.1, affine=True, track_running_stats=True)
        )
      )
      (preprocess1): ReLUConvBN(
        (op): Sequential(
          (0): ReLU()
          (1): Conv2d(144, 36, kernel_size=(1, 1), stride=(1, 1), bias=False)
          (2): BatchNorm2d(36, eps=1e-05, momentum=0.1, affine=True, track_running_stats=True)
        )
      )
      (_ops): ModuleList(
        (0): Identity()
        (1): Identity()
        (2): Identity()
        (3): SepConv(
          (op): Sequential(
            (0): ReLU()
            (1): Conv2d(36, 36, kernel_size=(3, 3), stride=(1, 1), padding=(1, 1), groups=36, bias=False)
            (2): Conv2d(36, 36, kernel_size=(1, 1), stride=(1, 1), bias=False)
            (3): BatchNorm2d(36, eps=1e-05, momentum=0.1, affine=True, track_running_stats=True)
            (4): ReLU()
            (5): Conv2d(36, 36, kernel_size=(3, 3), stride=(1, 1), padding=(1, 1), groups=36, bias=False)
            (6): Conv2d(36, 36, kernel_size=(1, 1), stride=(1, 1), bias=False)
            (7): BatchNorm2d(36, eps=1e-05, momentum=0.1, affine=True, track_running_stats=True)
          )
        )
        (4): Identity()
        (5): SepConv(
          (op): Sequential(
            (0): ReLU()
            (1): Conv2d(36, 36, kernel_size=(3, 3), stride=(1, 1), padding=(1, 1), groups=36, bias=False)
            (2): Conv2d(36, 36, kernel_size=(1, 1), stride=(1, 1), bias=False)
            (3): BatchNorm2d(36, eps=1e-05, momentum=0.1, affine=True, track_running_stats=True)
            (4): ReLU()
            (5): Conv2d(36, 36, kernel_size=(3, 3), stride=(1, 1), padding=(1, 1), groups=36, bias=False)
            (6): Conv2d(36, 36, kernel_size=(1, 1), stride=(1, 1), bias=False)
            (7): BatchNorm2d(36, eps=1e-05, momentum=0.1, affine=True, track_running_stats=True)
          )
        )
        (6): Identity()
        (7): SepConv(
          (op): Sequential(
            (0): ReLU()
            (1): Conv2d(36, 36, kernel_size=(3, 3), stride=(1, 1), padding=(1, 1), groups=36, bias=False)
            (2): Conv2d(36, 36, kernel_size=(1, 1), stride=(1, 1), bias=False)
            (3): BatchNorm2d(36, eps=1e-05, momentum=0.1, affine=True, track_running_stats=True)
            (4): ReLU()
            (5): Conv2d(36, 36, kernel_size=(3, 3), stride=(1, 1), padding=(1, 1), groups=36, bias=False)
            (6): Conv2d(36, 36, kernel_size=(1, 1), stride=(1, 1), bias=False)
            (7): BatchNorm2d(36, eps=1e-05, momentum=0.1, affine=True, track_running_stats=True)
          )
        )
      )
    )
    (4): Cell(
      (preprocess0): ReLUConvBN(
        (op): Sequential(
          (0): ReLU()
          (1): Conv2d(144, 36, kernel_size=(1, 1), stride=(1, 1), bias=False)
          (2): BatchNorm2d(36, eps=1e-05, momentum=0.1, affine=True, track_running_stats=True)
        )
      )
      (preprocess1): ReLUConvBN(
        (op): Sequential(
          (0): ReLU()
          (1): Conv2d(144, 36, kernel_size=(1, 1), stride=(1, 1), bias=False)
          (2): BatchNorm2d(36, eps=1e-05, momentum=0.1, affine=True, track_running_stats=True)
        )
      )
      (_ops): ModuleList(
        (0): Identity()
        (1): Identity()
        (2): Identity()
        (3): SepConv(
          (op): Sequential(
            (0): ReLU()
            (1): Conv2d(36, 36, kernel_size=(3, 3), stride=(1, 1), padding=(1, 1), groups=36, bias=False)
            (2): Conv2d(36, 36, kernel_size=(1, 1), stride=(1, 1), bias=False)
            (3): BatchNorm2d(36, eps=1e-05, momentum=0.1, affine=True, track_running_stats=True)
            (4): ReLU()
            (5): Conv2d(36, 36, kernel_size=(3, 3), stride=(1, 1), padding=(1, 1), groups=36, bias=False)
            (6): Conv2d(36, 36, kernel_size=(1, 1), stride=(1, 1), bias=False)
            (7): BatchNorm2d(36, eps=1e-05, momentum=0.1, affine=True, track_running_stats=True)
          )
        )
        (4): Identity()
        (5): SepConv(
          (op): Sequential(
            (0): ReLU()
            (1): Conv2d(36, 36, kernel_size=(3, 3), stride=(1, 1), padding=(1, 1), groups=36, bias=False)
            (2): Conv2d(36, 36, kernel_size=(1, 1), stride=(1, 1), bias=False)
            (3): BatchNorm2d(36, eps=1e-05, momentum=0.1, affine=True, track_running_stats=True)
            (4): ReLU()
            (5): Conv2d(36, 36, kernel_size=(3, 3), stride=(1, 1), padding=(1, 1), groups=36, bias=False)
            (6): Conv2d(36, 36, kernel_size=(1, 1), stride=(1, 1), bias=False)
            (7): BatchNorm2d(36, eps=1e-05, momentum=0.1, affine=True, track_running_stats=True)
          )
        )
        (6): Identity()
        (7): SepConv(
          (op): Sequential(
            (0): ReLU()
            (1): Conv2d(36, 36, kernel_size=(3, 3), stride=(1, 1), padding=(1, 1), groups=36, bias=False)
            (2): Conv2d(36, 36, kernel_size=(1, 1), stride=(1, 1), bias=False)
            (3): BatchNorm2d(36, eps=1e-05, momentum=0.1, affine=True, track_running_stats=True)
            (4): ReLU()
            (5): Conv2d(36, 36, kernel_size=(3, 3), stride=(1, 1), padding=(1, 1), groups=36, bias=False)
            (6): Conv2d(36, 36, kernel_size=(1, 1), stride=(1, 1), bias=False)
            (7): BatchNorm2d(36, eps=1e-05, momentum=0.1, affine=True, track_running_stats=True)
          )
        )
      )
    )
    (5): Cell(
      (preprocess0): ReLUConvBN(
        (op): Sequential(
          (0): ReLU()
          (1): Conv2d(144, 36, kernel_size=(1, 1), stride=(1, 1), bias=False)
          (2): BatchNorm2d(36, eps=1e-05, momentum=0.1, affine=True, track_running_stats=True)
        )
      )
      (preprocess1): ReLUConvBN(
        (op): Sequential(
          (0): ReLU()
          (1): Conv2d(144, 36, kernel_size=(1, 1), stride=(1, 1), bias=False)
          (2): BatchNorm2d(36, eps=1e-05, momentum=0.1, affine=True, track_running_stats=True)
        )
      )
      (_ops): ModuleList(
        (0): Identity()
        (1): Identity()
        (2): Identity()
        (3): SepConv(
          (op): Sequential(
            (0): ReLU()
            (1): Conv2d(36, 36, kernel_size=(3, 3), stride=(1, 1), padding=(1, 1), groups=36, bias=False)
            (2): Conv2d(36, 36, kernel_size=(1, 1), stride=(1, 1), bias=False)
            (3): BatchNorm2d(36, eps=1e-05, momentum=0.1, affine=True, track_running_stats=True)
            (4): ReLU()
            (5): Conv2d(36, 36, kernel_size=(3, 3), stride=(1, 1), padding=(1, 1), groups=36, bias=False)
            (6): Conv2d(36, 36, kernel_size=(1, 1), stride=(1, 1), bias=False)
            (7): BatchNorm2d(36, eps=1e-05, momentum=0.1, affine=True, track_running_stats=True)
          )
        )
        (4): Identity()
        (5): SepConv(
          (op): Sequential(
            (0): ReLU()
            (1): Conv2d(36, 36, kernel_size=(3, 3), stride=(1, 1), padding=(1, 1), groups=36, bias=False)
            (2): Conv2d(36, 36, kernel_size=(1, 1), stride=(1, 1), bias=False)
            (3): BatchNorm2d(36, eps=1e-05, momentum=0.1, affine=True, track_running_stats=True)
            (4): ReLU()
            (5): Conv2d(36, 36, kernel_size=(3, 3), stride=(1, 1), padding=(1, 1), groups=36, bias=False)
            (6): Conv2d(36, 36, kernel_size=(1, 1), stride=(1, 1), bias=False)
            (7): BatchNorm2d(36, eps=1e-05, momentum=0.1, affine=True, track_running_stats=True)
          )
        )
        (6): Identity()
        (7): SepConv(
          (op): Sequential(
            (0): ReLU()
            (1): Conv2d(36, 36, kernel_size=(3, 3), stride=(1, 1), padding=(1, 1), groups=36, bias=False)
            (2): Conv2d(36, 36, kernel_size=(1, 1), stride=(1, 1), bias=False)
            (3): BatchNorm2d(36, eps=1e-05, momentum=0.1, affine=True, track_running_stats=True)
            (4): ReLU()
            (5): Conv2d(36, 36, kernel_size=(3, 3), stride=(1, 1), padding=(1, 1), groups=36, bias=False)
            (6): Conv2d(36, 36, kernel_size=(1, 1), stride=(1, 1), bias=False)
            (7): BatchNorm2d(36, eps=1e-05, momentum=0.1, affine=True, track_running_stats=True)
          )
        )
      )
    )
    (6): Transition(
      (preprocess0): ReLUConvBN(
        (op): Sequential(
          (0): ReLU()
          (1): Conv2d(144, 72, kernel_size=(1, 1), stride=(1, 1), bias=False)
          (2): BatchNorm2d(72, eps=1e-05, momentum=0.1, affine=True, track_running_stats=True)
        )
      )
      (preprocess1): ReLUConvBN(
        (op): Sequential(
          (0): ReLU()
          (1): Conv2d(144, 72, kernel_size=(1, 1), stride=(1, 1), bias=False)
          (2): BatchNorm2d(72, eps=1e-05, momentum=0.1, affine=True, track_running_stats=True)
        )
      )
      (ops1): ModuleList(
        (0): Sequential(
          (0): ReLU()
          (1): Conv2d(72, 72, kernel_size=(1, 3), stride=(1, 2), padding=(0, 1), groups=8, bias=False)
          (2): Conv2d(72, 72, kernel_size=(3, 1), stride=(2, 1), padding=(1, 0), groups=8, bias=False)
          (3): BatchNorm2d(72, eps=1e-05, momentum=0.1, affine=True, track_running_stats=True)
          (4): ReLU()
          (5): Conv2d(72, 72, kernel_size=(1, 1), stride=(1, 1), bias=False)
          (6): BatchNorm2d(72, eps=1e-05, momentum=0.1, affine=True, track_running_stats=True)
        )
        (1): Sequential(
          (0): ReLU()
          (1): Conv2d(72, 72, kernel_size=(1, 3), stride=(1, 2), padding=(0, 1), groups=8, bias=False)
          (2): Conv2d(72, 72, kernel_size=(3, 1), stride=(2, 1), padding=(1, 0), groups=8, bias=False)
          (3): BatchNorm2d(72, eps=1e-05, momentum=0.1, affine=True, track_running_stats=True)
          (4): ReLU()
          (5): Conv2d(72, 72, kernel_size=(1, 1), stride=(1, 1), bias=False)
          (6): BatchNorm2d(72, eps=1e-05, momentum=0.1, affine=True, track_running_stats=True)
        )
      )
      (ops2): ModuleList(
        (0): Sequential(
          (0): MaxPool2d(kernel_size=3, stride=2, padding=1, dilation=1, ceil_mode=False)
          (1): BatchNorm2d(72, eps=1e-05, momentum=0.1, affine=True, track_running_stats=True)
        )
        (1): Sequential(
          (0): MaxPool2d(kernel_size=3, stride=2, padding=1, dilation=1, ceil_mode=False)
          (1): BatchNorm2d(72, eps=1e-05, momentum=0.1, affine=True, track_running_stats=True)
        )
      )
    )
    (7): Cell(
      (preprocess0): FactorizedReduce(
        (relu): ReLU()
        (conv_1): Conv2d(144, 36, kernel_size=(1, 1), stride=(2, 2), bias=False)
        (conv_2): Conv2d(144, 36, kernel_size=(1, 1), stride=(2, 2), bias=False)
        (bn): BatchNorm2d(72, eps=1e-05, momentum=0.1, affine=True, track_running_stats=True)
        (pad): ConstantPad2d(padding=(0, 1, 0, 1), value=0)
      )
      (preprocess1): ReLUConvBN(
        (op): Sequential(
          (0): ReLU()
          (1): Conv2d(288, 72, kernel_size=(1, 1), stride=(1, 1), bias=False)
          (2): BatchNorm2d(72, eps=1e-05, momentum=0.1, affine=True, track_running_stats=True)
        )
      )
      (_ops): ModuleList(
        (0): Identity()
        (1): Identity()
        (2): Identity()
        (3): SepConv(
          (op): Sequential(
            (0): ReLU()
            (1): Conv2d(72, 72, kernel_size=(3, 3), stride=(1, 1), padding=(1, 1), groups=72, bias=False)
            (2): Conv2d(72, 72, kernel_size=(1, 1), stride=(1, 1), bias=False)
            (3): BatchNorm2d(72, eps=1e-05, momentum=0.1, affine=True, track_running_stats=True)
            (4): ReLU()
            (5): Conv2d(72, 72, kernel_size=(3, 3), stride=(1, 1), padding=(1, 1), groups=72, bias=False)
            (6): Conv2d(72, 72, kernel_size=(1, 1), stride=(1, 1), bias=False)
            (7): BatchNorm2d(72, eps=1e-05, momentum=0.1, affine=True, track_running_stats=True)
          )
        )
        (4): Identity()
        (5): SepConv(
          (op): Sequential(
            (0): ReLU()
            (1): Conv2d(72, 72, kernel_size=(3, 3), stride=(1, 1), padding=(1, 1), groups=72, bias=False)
            (2): Conv2d(72, 72, kernel_size=(1, 1), stride=(1, 1), bias=False)
            (3): BatchNorm2d(72, eps=1e-05, momentum=0.1, affine=True, track_running_stats=True)
            (4): ReLU()
            (5): Conv2d(72, 72, kernel_size=(3, 3), stride=(1, 1), padding=(1, 1), groups=72, bias=False)
            (6): Conv2d(72, 72, kernel_size=(1, 1), stride=(1, 1), bias=False)
            (7): BatchNorm2d(72, eps=1e-05, momentum=0.1, affine=True, track_running_stats=True)
          )
        )
        (6): Identity()
        (7): SepConv(
          (op): Sequential(
            (0): ReLU()
            (1): Conv2d(72, 72, kernel_size=(3, 3), stride=(1, 1), padding=(1, 1), groups=72, bias=False)
            (2): Conv2d(72, 72, kernel_size=(1, 1), stride=(1, 1), bias=False)
            (3): BatchNorm2d(72, eps=1e-05, momentum=0.1, affine=True, track_running_stats=True)
            (4): ReLU()
            (5): Conv2d(72, 72, kernel_size=(3, 3), stride=(1, 1), padding=(1, 1), groups=72, bias=False)
            (6): Conv2d(72, 72, kernel_size=(1, 1), stride=(1, 1), bias=False)
            (7): BatchNorm2d(72, eps=1e-05, momentum=0.1, affine=True, track_running_stats=True)
          )
        )
      )
    )
    (8): Cell(
      (preprocess0): ReLUConvBN(
        (op): Sequential(
          (0): ReLU()
          (1): Conv2d(288, 72, kernel_size=(1, 1), stride=(1, 1), bias=False)
          (2): BatchNorm2d(72, eps=1e-05, momentum=0.1, affine=True, track_running_stats=True)
        )
      )
      (preprocess1): ReLUConvBN(
        (op): Sequential(
          (0): ReLU()
          (1): Conv2d(288, 72, kernel_size=(1, 1), stride=(1, 1), bias=False)
          (2): BatchNorm2d(72, eps=1e-05, momentum=0.1, affine=True, track_running_stats=True)
        )
      )
      (_ops): ModuleList(
        (0): Identity()
        (1): Identity()
        (2): Identity()
        (3): SepConv(
          (op): Sequential(
            (0): ReLU()
            (1): Conv2d(72, 72, kernel_size=(3, 3), stride=(1, 1), padding=(1, 1), groups=72, bias=False)
            (2): Conv2d(72, 72, kernel_size=(1, 1), stride=(1, 1), bias=False)
            (3): BatchNorm2d(72, eps=1e-05, momentum=0.1, affine=True, track_running_stats=True)
            (4): ReLU()
            (5): Conv2d(72, 72, kernel_size=(3, 3), stride=(1, 1), padding=(1, 1), groups=72, bias=False)
            (6): Conv2d(72, 72, kernel_size=(1, 1), stride=(1, 1), bias=False)
            (7): BatchNorm2d(72, eps=1e-05, momentum=0.1, affine=True, track_running_stats=True)
          )
        )
        (4): Identity()
        (5): SepConv(
          (op): Sequential(
            (0): ReLU()
            (1): Conv2d(72, 72, kernel_size=(3, 3), stride=(1, 1), padding=(1, 1), groups=72, bias=False)
            (2): Conv2d(72, 72, kernel_size=(1, 1), stride=(1, 1), bias=False)
            (3): BatchNorm2d(72, eps=1e-05, momentum=0.1, affine=True, track_running_stats=True)
            (4): ReLU()
            (5): Conv2d(72, 72, kernel_size=(3, 3), stride=(1, 1), padding=(1, 1), groups=72, bias=False)
            (6): Conv2d(72, 72, kernel_size=(1, 1), stride=(1, 1), bias=False)
            (7): BatchNorm2d(72, eps=1e-05, momentum=0.1, affine=True, track_running_stats=True)
          )
        )
        (6): Identity()
        (7): SepConv(
          (op): Sequential(
            (0): ReLU()
            (1): Conv2d(72, 72, kernel_size=(3, 3), stride=(1, 1), padding=(1, 1), groups=72, bias=False)
            (2): Conv2d(72, 72, kernel_size=(1, 1), stride=(1, 1), bias=False)
            (3): BatchNorm2d(72, eps=1e-05, momentum=0.1, affine=True, track_running_stats=True)
            (4): ReLU()
            (5): Conv2d(72, 72, kernel_size=(3, 3), stride=(1, 1), padding=(1, 1), groups=72, bias=False)
            (6): Conv2d(72, 72, kernel_size=(1, 1), stride=(1, 1), bias=False)
            (7): BatchNorm2d(72, eps=1e-05, momentum=0.1, affine=True, track_running_stats=True)
          )
        )
      )
    )
    (9): Cell(
      (preprocess0): ReLUConvBN(
        (op): Sequential(
          (0): ReLU()
          (1): Conv2d(288, 72, kernel_size=(1, 1), stride=(1, 1), bias=False)
          (2): BatchNorm2d(72, eps=1e-05, momentum=0.1, affine=True, track_running_stats=True)
        )
      )
      (preprocess1): ReLUConvBN(
        (op): Sequential(
          (0): ReLU()
          (1): Conv2d(288, 72, kernel_size=(1, 1), stride=(1, 1), bias=False)
          (2): BatchNorm2d(72, eps=1e-05, momentum=0.1, affine=True, track_running_stats=True)
        )
      )
      (_ops): ModuleList(
        (0): Identity()
        (1): Identity()
        (2): Identity()
        (3): SepConv(
          (op): Sequential(
            (0): ReLU()
            (1): Conv2d(72, 72, kernel_size=(3, 3), stride=(1, 1), padding=(1, 1), groups=72, bias=False)
            (2): Conv2d(72, 72, kernel_size=(1, 1), stride=(1, 1), bias=False)
            (3): BatchNorm2d(72, eps=1e-05, momentum=0.1, affine=True, track_running_stats=True)
            (4): ReLU()
            (5): Conv2d(72, 72, kernel_size=(3, 3), stride=(1, 1), padding=(1, 1), groups=72, bias=False)
            (6): Conv2d(72, 72, kernel_size=(1, 1), stride=(1, 1), bias=False)
            (7): BatchNorm2d(72, eps=1e-05, momentum=0.1, affine=True, track_running_stats=True)
          )
        )
        (4): Identity()
        (5): SepConv(
          (op): Sequential(
            (0): ReLU()
            (1): Conv2d(72, 72, kernel_size=(3, 3), stride=(1, 1), padding=(1, 1), groups=72, bias=False)
            (2): Conv2d(72, 72, kernel_size=(1, 1), stride=(1, 1), bias=False)
            (3): BatchNorm2d(72, eps=1e-05, momentum=0.1, affine=True, track_running_stats=True)
            (4): ReLU()
            (5): Conv2d(72, 72, kernel_size=(3, 3), stride=(1, 1), padding=(1, 1), groups=72, bias=False)
            (6): Conv2d(72, 72, kernel_size=(1, 1), stride=(1, 1), bias=False)
            (7): BatchNorm2d(72, eps=1e-05, momentum=0.1, affine=True, track_running_stats=True)
          )
        )
        (6): Identity()
        (7): SepConv(
          (op): Sequential(
            (0): ReLU()
            (1): Conv2d(72, 72, kernel_size=(3, 3), stride=(1, 1), padding=(1, 1), groups=72, bias=False)
            (2): Conv2d(72, 72, kernel_size=(1, 1), stride=(1, 1), bias=False)
            (3): BatchNorm2d(72, eps=1e-05, momentum=0.1, affine=True, track_running_stats=True)
            (4): ReLU()
            (5): Conv2d(72, 72, kernel_size=(3, 3), stride=(1, 1), padding=(1, 1), groups=72, bias=False)
            (6): Conv2d(72, 72, kernel_size=(1, 1), stride=(1, 1), bias=False)
            (7): BatchNorm2d(72, eps=1e-05, momentum=0.1, affine=True, track_running_stats=True)
          )
        )
      )
    )
    (10): Cell(
      (preprocess0): ReLUConvBN(
        (op): Sequential(
          (0): ReLU()
          (1): Conv2d(288, 72, kernel_size=(1, 1), stride=(1, 1), bias=False)
          (2): BatchNorm2d(72, eps=1e-05, momentum=0.1, affine=True, track_running_stats=True)
        )
      )
      (preprocess1): ReLUConvBN(
        (op): Sequential(
          (0): ReLU()
          (1): Conv2d(288, 72, kernel_size=(1, 1), stride=(1, 1), bias=False)
          (2): BatchNorm2d(72, eps=1e-05, momentum=0.1, affine=True, track_running_stats=True)
        )
      )
      (_ops): ModuleList(
        (0): Identity()
        (1): Identity()
        (2): Identity()
        (3): SepConv(
          (op): Sequential(
            (0): ReLU()
            (1): Conv2d(72, 72, kernel_size=(3, 3), stride=(1, 1), padding=(1, 1), groups=72, bias=False)
            (2): Conv2d(72, 72, kernel_size=(1, 1), stride=(1, 1), bias=False)
            (3): BatchNorm2d(72, eps=1e-05, momentum=0.1, affine=True, track_running_stats=True)
            (4): ReLU()
            (5): Conv2d(72, 72, kernel_size=(3, 3), stride=(1, 1), padding=(1, 1), groups=72, bias=False)
            (6): Conv2d(72, 72, kernel_size=(1, 1), stride=(1, 1), bias=False)
            (7): BatchNorm2d(72, eps=1e-05, momentum=0.1, affine=True, track_running_stats=True)
          )
        )
        (4): Identity()
        (5): SepConv(
          (op): Sequential(
            (0): ReLU()
            (1): Conv2d(72, 72, kernel_size=(3, 3), stride=(1, 1), padding=(1, 1), groups=72, bias=False)
            (2): Conv2d(72, 72, kernel_size=(1, 1), stride=(1, 1), bias=False)
            (3): BatchNorm2d(72, eps=1e-05, momentum=0.1, affine=True, track_running_stats=True)
            (4): ReLU()
            (5): Conv2d(72, 72, kernel_size=(3, 3), stride=(1, 1), padding=(1, 1), groups=72, bias=False)
            (6): Conv2d(72, 72, kernel_size=(1, 1), stride=(1, 1), bias=False)
            (7): BatchNorm2d(72, eps=1e-05, momentum=0.1, affine=True, track_running_stats=True)
          )
        )
        (6): Identity()
        (7): SepConv(
          (op): Sequential(
            (0): ReLU()
            (1): Conv2d(72, 72, kernel_size=(3, 3), stride=(1, 1), padding=(1, 1), groups=72, bias=False)
            (2): Conv2d(72, 72, kernel_size=(1, 1), stride=(1, 1), bias=False)
            (3): BatchNorm2d(72, eps=1e-05, momentum=0.1, affine=True, track_running_stats=True)
            (4): ReLU()
            (5): Conv2d(72, 72, kernel_size=(3, 3), stride=(1, 1), padding=(1, 1), groups=72, bias=False)
            (6): Conv2d(72, 72, kernel_size=(1, 1), stride=(1, 1), bias=False)
            (7): BatchNorm2d(72, eps=1e-05, momentum=0.1, affine=True, track_running_stats=True)
          )
        )
      )
    )
    (11): Cell(
      (preprocess0): ReLUConvBN(
        (op): Sequential(
          (0): ReLU()
          (1): Conv2d(288, 72, kernel_size=(1, 1), stride=(1, 1), bias=False)
          (2): BatchNorm2d(72, eps=1e-05, momentum=0.1, affine=True, track_running_stats=True)
        )
      )
      (preprocess1): ReLUConvBN(
        (op): Sequential(
          (0): ReLU()
          (1): Conv2d(288, 72, kernel_size=(1, 1), stride=(1, 1), bias=False)
          (2): BatchNorm2d(72, eps=1e-05, momentum=0.1, affine=True, track_running_stats=True)
        )
      )
      (_ops): ModuleList(
        (0): Identity()
        (1): Identity()
        (2): Identity()
        (3): SepConv(
          (op): Sequential(
            (0): ReLU()
            (1): Conv2d(72, 72, kernel_size=(3, 3), stride=(1, 1), padding=(1, 1), groups=72, bias=False)
            (2): Conv2d(72, 72, kernel_size=(1, 1), stride=(1, 1), bias=False)
            (3): BatchNorm2d(72, eps=1e-05, momentum=0.1, affine=True, track_running_stats=True)
            (4): ReLU()
            (5): Conv2d(72, 72, kernel_size=(3, 3), stride=(1, 1), padding=(1, 1), groups=72, bias=False)
            (6): Conv2d(72, 72, kernel_size=(1, 1), stride=(1, 1), bias=False)
            (7): BatchNorm2d(72, eps=1e-05, momentum=0.1, affine=True, track_running_stats=True)
          )
        )
        (4): Identity()
        (5): SepConv(
          (op): Sequential(
            (0): ReLU()
            (1): Conv2d(72, 72, kernel_size=(3, 3), stride=(1, 1), padding=(1, 1), groups=72, bias=False)
            (2): Conv2d(72, 72, kernel_size=(1, 1), stride=(1, 1), bias=False)
            (3): BatchNorm2d(72, eps=1e-05, momentum=0.1, affine=True, track_running_stats=True)
            (4): ReLU()
            (5): Conv2d(72, 72, kernel_size=(3, 3), stride=(1, 1), padding=(1, 1), groups=72, bias=False)
            (6): Conv2d(72, 72, kernel_size=(1, 1), stride=(1, 1), bias=False)
            (7): BatchNorm2d(72, eps=1e-05, momentum=0.1, affine=True, track_running_stats=True)
          )
        )
        (6): Identity()
        (7): SepConv(
          (op): Sequential(
            (0): ReLU()
            (1): Conv2d(72, 72, kernel_size=(3, 3), stride=(1, 1), padding=(1, 1), groups=72, bias=False)
            (2): Conv2d(72, 72, kernel_size=(1, 1), stride=(1, 1), bias=False)
            (3): BatchNorm2d(72, eps=1e-05, momentum=0.1, affine=True, track_running_stats=True)
            (4): ReLU()
            (5): Conv2d(72, 72, kernel_size=(3, 3), stride=(1, 1), padding=(1, 1), groups=72, bias=False)
            (6): Conv2d(72, 72, kernel_size=(1, 1), stride=(1, 1), bias=False)
            (7): BatchNorm2d(72, eps=1e-05, momentum=0.1, affine=True, track_running_stats=True)
          )
        )
      )
    )
    (12): Cell(
      (preprocess0): ReLUConvBN(
        (op): Sequential(
          (0): ReLU()
          (1): Conv2d(288, 72, kernel_size=(1, 1), stride=(1, 1), bias=False)
          (2): BatchNorm2d(72, eps=1e-05, momentum=0.1, affine=True, track_running_stats=True)
        )
      )
      (preprocess1): ReLUConvBN(
        (op): Sequential(
          (0): ReLU()
          (1): Conv2d(288, 72, kernel_size=(1, 1), stride=(1, 1), bias=False)
          (2): BatchNorm2d(72, eps=1e-05, momentum=0.1, affine=True, track_running_stats=True)
        )
      )
      (_ops): ModuleList(
        (0): Identity()
        (1): Identity()
        (2): Identity()
        (3): SepConv(
          (op): Sequential(
            (0): ReLU()
            (1): Conv2d(72, 72, kernel_size=(3, 3), stride=(1, 1), padding=(1, 1), groups=72, bias=False)
            (2): Conv2d(72, 72, kernel_size=(1, 1), stride=(1, 1), bias=False)
            (3): BatchNorm2d(72, eps=1e-05, momentum=0.1, affine=True, track_running_stats=True)
            (4): ReLU()
            (5): Conv2d(72, 72, kernel_size=(3, 3), stride=(1, 1), padding=(1, 1), groups=72, bias=False)
            (6): Conv2d(72, 72, kernel_size=(1, 1), stride=(1, 1), bias=False)
            (7): BatchNorm2d(72, eps=1e-05, momentum=0.1, affine=True, track_running_stats=True)
          )
        )
        (4): Identity()
        (5): SepConv(
          (op): Sequential(
            (0): ReLU()
            (1): Conv2d(72, 72, kernel_size=(3, 3), stride=(1, 1), padding=(1, 1), groups=72, bias=False)
            (2): Conv2d(72, 72, kernel_size=(1, 1), stride=(1, 1), bias=False)
            (3): BatchNorm2d(72, eps=1e-05, momentum=0.1, affine=True, track_running_stats=True)
            (4): ReLU()
            (5): Conv2d(72, 72, kernel_size=(3, 3), stride=(1, 1), padding=(1, 1), groups=72, bias=False)
            (6): Conv2d(72, 72, kernel_size=(1, 1), stride=(1, 1), bias=False)
            (7): BatchNorm2d(72, eps=1e-05, momentum=0.1, affine=True, track_running_stats=True)
          )
        )
        (6): Identity()
        (7): SepConv(
          (op): Sequential(
            (0): ReLU()
            (1): Conv2d(72, 72, kernel_size=(3, 3), stride=(1, 1), padding=(1, 1), groups=72, bias=False)
            (2): Conv2d(72, 72, kernel_size=(1, 1), stride=(1, 1), bias=False)
            (3): BatchNorm2d(72, eps=1e-05, momentum=0.1, affine=True, track_running_stats=True)
            (4): ReLU()
            (5): Conv2d(72, 72, kernel_size=(3, 3), stride=(1, 1), padding=(1, 1), groups=72, bias=False)
            (6): Conv2d(72, 72, kernel_size=(1, 1), stride=(1, 1), bias=False)
            (7): BatchNorm2d(72, eps=1e-05, momentum=0.1, affine=True, track_running_stats=True)
          )
        )
      )
    )
    (13): Transition(
      (preprocess0): ReLUConvBN(
        (op): Sequential(
          (0): ReLU()
          (1): Conv2d(288, 144, kernel_size=(1, 1), stride=(1, 1), bias=False)
          (2): BatchNorm2d(144, eps=1e-05, momentum=0.1, affine=True, track_running_stats=True)
        )
      )
      (preprocess1): ReLUConvBN(
        (op): Sequential(
          (0): ReLU()
          (1): Conv2d(288, 144, kernel_size=(1, 1), stride=(1, 1), bias=False)
          (2): BatchNorm2d(144, eps=1e-05, momentum=0.1, affine=True, track_running_stats=True)
        )
      )
      (ops1): ModuleList(
        (0): Sequential(
          (0): ReLU()
          (1): Conv2d(144, 144, kernel_size=(1, 3), stride=(1, 2), padding=(0, 1), groups=8, bias=False)
          (2): Conv2d(144, 144, kernel_size=(3, 1), stride=(2, 1), padding=(1, 0), groups=8, bias=False)
          (3): BatchNorm2d(144, eps=1e-05, momentum=0.1, affine=True, track_running_stats=True)
          (4): ReLU()
          (5): Conv2d(144, 144, kernel_size=(1, 1), stride=(1, 1), bias=False)
          (6): BatchNorm2d(144, eps=1e-05, momentum=0.1, affine=True, track_running_stats=True)
        )
        (1): Sequential(
          (0): ReLU()
          (1): Conv2d(144, 144, kernel_size=(1, 3), stride=(1, 2), padding=(0, 1), groups=8, bias=False)
          (2): Conv2d(144, 144, kernel_size=(3, 1), stride=(2, 1), padding=(1, 0), groups=8, bias=False)
          (3): BatchNorm2d(144, eps=1e-05, momentum=0.1, affine=True, track_running_stats=True)
          (4): ReLU()
          (5): Conv2d(144, 144, kernel_size=(1, 1), stride=(1, 1), bias=False)
          (6): BatchNorm2d(144, eps=1e-05, momentum=0.1, affine=True, track_running_stats=True)
        )
      )
      (ops2): ModuleList(
        (0): Sequential(
          (0): MaxPool2d(kernel_size=3, stride=2, padding=1, dilation=1, ceil_mode=False)
          (1): BatchNorm2d(144, eps=1e-05, momentum=0.1, affine=True, track_running_stats=True)
        )
        (1): Sequential(
          (0): MaxPool2d(kernel_size=3, stride=2, padding=1, dilation=1, ceil_mode=False)
          (1): BatchNorm2d(144, eps=1e-05, momentum=0.1, affine=True, track_running_stats=True)
        )
      )
    )
    (14): Cell(
      (preprocess0): FactorizedReduce(
        (relu): ReLU()
        (conv_1): Conv2d(288, 72, kernel_size=(1, 1), stride=(2, 2), bias=False)
        (conv_2): Conv2d(288, 72, kernel_size=(1, 1), stride=(2, 2), bias=False)
        (bn): BatchNorm2d(144, eps=1e-05, momentum=0.1, affine=True, track_running_stats=True)
        (pad): ConstantPad2d(padding=(0, 1, 0, 1), value=0)
      )
      (preprocess1): ReLUConvBN(
        (op): Sequential(
          (0): ReLU()
          (1): Conv2d(576, 144, kernel_size=(1, 1), stride=(1, 1), bias=False)
          (2): BatchNorm2d(144, eps=1e-05, momentum=0.1, affine=True, track_running_stats=True)
        )
      )
      (_ops): ModuleList(
        (0): Identity()
        (1): Identity()
        (2): Identity()
        (3): SepConv(
          (op): Sequential(
            (0): ReLU()
            (1): Conv2d(144, 144, kernel_size=(3, 3), stride=(1, 1), padding=(1, 1), groups=144, bias=False)
            (2): Conv2d(144, 144, kernel_size=(1, 1), stride=(1, 1), bias=False)
            (3): BatchNorm2d(144, eps=1e-05, momentum=0.1, affine=True, track_running_stats=True)
            (4): ReLU()
            (5): Conv2d(144, 144, kernel_size=(3, 3), stride=(1, 1), padding=(1, 1), groups=144, bias=False)
            (6): Conv2d(144, 144, kernel_size=(1, 1), stride=(1, 1), bias=False)
            (7): BatchNorm2d(144, eps=1e-05, momentum=0.1, affine=True, track_running_stats=True)
          )
        )
        (4): Identity()
        (5): SepConv(
          (op): Sequential(
            (0): ReLU()
            (1): Conv2d(144, 144, kernel_size=(3, 3), stride=(1, 1), padding=(1, 1), groups=144, bias=False)
            (2): Conv2d(144, 144, kernel_size=(1, 1), stride=(1, 1), bias=False)
            (3): BatchNorm2d(144, eps=1e-05, momentum=0.1, affine=True, track_running_stats=True)
            (4): ReLU()
            (5): Conv2d(144, 144, kernel_size=(3, 3), stride=(1, 1), padding=(1, 1), groups=144, bias=False)
            (6): Conv2d(144, 144, kernel_size=(1, 1), stride=(1, 1), bias=False)
            (7): BatchNorm2d(144, eps=1e-05, momentum=0.1, affine=True, track_running_stats=True)
          )
        )
        (6): Identity()
        (7): SepConv(
          (op): Sequential(
            (0): ReLU()
            (1): Conv2d(144, 144, kernel_size=(3, 3), stride=(1, 1), padding=(1, 1), groups=144, bias=False)
            (2): Conv2d(144, 144, kernel_size=(1, 1), stride=(1, 1), bias=False)
            (3): BatchNorm2d(144, eps=1e-05, momentum=0.1, affine=True, track_running_stats=True)
            (4): ReLU()
            (5): Conv2d(144, 144, kernel_size=(3, 3), stride=(1, 1), padding=(1, 1), groups=144, bias=False)
            (6): Conv2d(144, 144, kernel_size=(1, 1), stride=(1, 1), bias=False)
            (7): BatchNorm2d(144, eps=1e-05, momentum=0.1, affine=True, track_running_stats=True)
          )
        )
      )
    )
    (15): Cell(
      (preprocess0): ReLUConvBN(
        (op): Sequential(
          (0): ReLU()
          (1): Conv2d(576, 144, kernel_size=(1, 1), stride=(1, 1), bias=False)
          (2): BatchNorm2d(144, eps=1e-05, momentum=0.1, affine=True, track_running_stats=True)
        )
      )
      (preprocess1): ReLUConvBN(
        (op): Sequential(
          (0): ReLU()
          (1): Conv2d(576, 144, kernel_size=(1, 1), stride=(1, 1), bias=False)
          (2): BatchNorm2d(144, eps=1e-05, momentum=0.1, affine=True, track_running_stats=True)
        )
      )
      (_ops): ModuleList(
        (0): Identity()
        (1): Identity()
        (2): Identity()
        (3): SepConv(
          (op): Sequential(
            (0): ReLU()
            (1): Conv2d(144, 144, kernel_size=(3, 3), stride=(1, 1), padding=(1, 1), groups=144, bias=False)
            (2): Conv2d(144, 144, kernel_size=(1, 1), stride=(1, 1), bias=False)
            (3): BatchNorm2d(144, eps=1e-05, momentum=0.1, affine=True, track_running_stats=True)
            (4): ReLU()
            (5): Conv2d(144, 144, kernel_size=(3, 3), stride=(1, 1), padding=(1, 1), groups=144, bias=False)
            (6): Conv2d(144, 144, kernel_size=(1, 1), stride=(1, 1), bias=False)
            (7): BatchNorm2d(144, eps=1e-05, momentum=0.1, affine=True, track_running_stats=True)
          )
        )
        (4): Identity()
        (5): SepConv(
          (op): Sequential(
            (0): ReLU()
            (1): Conv2d(144, 144, kernel_size=(3, 3), stride=(1, 1), padding=(1, 1), groups=144, bias=False)
            (2): Conv2d(144, 144, kernel_size=(1, 1), stride=(1, 1), bias=False)
            (3): BatchNorm2d(144, eps=1e-05, momentum=0.1, affine=True, track_running_stats=True)
            (4): ReLU()
            (5): Conv2d(144, 144, kernel_size=(3, 3), stride=(1, 1), padding=(1, 1), groups=144, bias=False)
            (6): Conv2d(144, 144, kernel_size=(1, 1), stride=(1, 1), bias=False)
            (7): BatchNorm2d(144, eps=1e-05, momentum=0.1, affine=True, track_running_stats=True)
          )
        )
        (6): Identity()
        (7): SepConv(
          (op): Sequential(
            (0): ReLU()
            (1): Conv2d(144, 144, kernel_size=(3, 3), stride=(1, 1), padding=(1, 1), groups=144, bias=False)
            (2): Conv2d(144, 144, kernel_size=(1, 1), stride=(1, 1), bias=False)
            (3): BatchNorm2d(144, eps=1e-05, momentum=0.1, affine=True, track_running_stats=True)
            (4): ReLU()
            (5): Conv2d(144, 144, kernel_size=(3, 3), stride=(1, 1), padding=(1, 1), groups=144, bias=False)
            (6): Conv2d(144, 144, kernel_size=(1, 1), stride=(1, 1), bias=False)
            (7): BatchNorm2d(144, eps=1e-05, momentum=0.1, affine=True, track_running_stats=True)
          )
        )
      )
    )
    (16): Cell(
      (preprocess0): ReLUConvBN(
        (op): Sequential(
          (0): ReLU()
          (1): Conv2d(576, 144, kernel_size=(1, 1), stride=(1, 1), bias=False)
          (2): BatchNorm2d(144, eps=1e-05, momentum=0.1, affine=True, track_running_stats=True)
        )
      )
      (preprocess1): ReLUConvBN(
        (op): Sequential(
          (0): ReLU()
          (1): Conv2d(576, 144, kernel_size=(1, 1), stride=(1, 1), bias=False)
          (2): BatchNorm2d(144, eps=1e-05, momentum=0.1, affine=True, track_running_stats=True)
        )
      )
      (_ops): ModuleList(
        (0): Identity()
        (1): Identity()
        (2): Identity()
        (3): SepConv(
          (op): Sequential(
            (0): ReLU()
            (1): Conv2d(144, 144, kernel_size=(3, 3), stride=(1, 1), padding=(1, 1), groups=144, bias=False)
            (2): Conv2d(144, 144, kernel_size=(1, 1), stride=(1, 1), bias=False)
            (3): BatchNorm2d(144, eps=1e-05, momentum=0.1, affine=True, track_running_stats=True)
            (4): ReLU()
            (5): Conv2d(144, 144, kernel_size=(3, 3), stride=(1, 1), padding=(1, 1), groups=144, bias=False)
            (6): Conv2d(144, 144, kernel_size=(1, 1), stride=(1, 1), bias=False)
            (7): BatchNorm2d(144, eps=1e-05, momentum=0.1, affine=True, track_running_stats=True)
          )
        )
        (4): Identity()
        (5): SepConv(
          (op): Sequential(
            (0): ReLU()
            (1): Conv2d(144, 144, kernel_size=(3, 3), stride=(1, 1), padding=(1, 1), groups=144, bias=False)
            (2): Conv2d(144, 144, kernel_size=(1, 1), stride=(1, 1), bias=False)
            (3): BatchNorm2d(144, eps=1e-05, momentum=0.1, affine=True, track_running_stats=True)
            (4): ReLU()
            (5): Conv2d(144, 144, kernel_size=(3, 3), stride=(1, 1), padding=(1, 1), groups=144, bias=False)
            (6): Conv2d(144, 144, kernel_size=(1, 1), stride=(1, 1), bias=False)
            (7): BatchNorm2d(144, eps=1e-05, momentum=0.1, affine=True, track_running_stats=True)
          )
        )
        (6): Identity()
        (7): SepConv(
          (op): Sequential(
            (0): ReLU()
            (1): Conv2d(144, 144, kernel_size=(3, 3), stride=(1, 1), padding=(1, 1), groups=144, bias=False)
            (2): Conv2d(144, 144, kernel_size=(1, 1), stride=(1, 1), bias=False)
            (3): BatchNorm2d(144, eps=1e-05, momentum=0.1, affine=True, track_running_stats=True)
            (4): ReLU()
            (5): Conv2d(144, 144, kernel_size=(3, 3), stride=(1, 1), padding=(1, 1), groups=144, bias=False)
            (6): Conv2d(144, 144, kernel_size=(1, 1), stride=(1, 1), bias=False)
            (7): BatchNorm2d(144, eps=1e-05, momentum=0.1, affine=True, track_running_stats=True)
          )
        )
      )
    )
    (17): Cell(
      (preprocess0): ReLUConvBN(
        (op): Sequential(
          (0): ReLU()
          (1): Conv2d(576, 144, kernel_size=(1, 1), stride=(1, 1), bias=False)
          (2): BatchNorm2d(144, eps=1e-05, momentum=0.1, affine=True, track_running_stats=True)
        )
      )
      (preprocess1): ReLUConvBN(
        (op): Sequential(
          (0): ReLU()
          (1): Conv2d(576, 144, kernel_size=(1, 1), stride=(1, 1), bias=False)
          (2): BatchNorm2d(144, eps=1e-05, momentum=0.1, affine=True, track_running_stats=True)
        )
      )
      (_ops): ModuleList(
        (0): Identity()
        (1): Identity()
        (2): Identity()
        (3): SepConv(
          (op): Sequential(
            (0): ReLU()
            (1): Conv2d(144, 144, kernel_size=(3, 3), stride=(1, 1), padding=(1, 1), groups=144, bias=False)
            (2): Conv2d(144, 144, kernel_size=(1, 1), stride=(1, 1), bias=False)
            (3): BatchNorm2d(144, eps=1e-05, momentum=0.1, affine=True, track_running_stats=True)
            (4): ReLU()
            (5): Conv2d(144, 144, kernel_size=(3, 3), stride=(1, 1), padding=(1, 1), groups=144, bias=False)
            (6): Conv2d(144, 144, kernel_size=(1, 1), stride=(1, 1), bias=False)
            (7): BatchNorm2d(144, eps=1e-05, momentum=0.1, affine=True, track_running_stats=True)
          )
        )
        (4): Identity()
        (5): SepConv(
          (op): Sequential(
            (0): ReLU()
            (1): Conv2d(144, 144, kernel_size=(3, 3), stride=(1, 1), padding=(1, 1), groups=144, bias=False)
            (2): Conv2d(144, 144, kernel_size=(1, 1), stride=(1, 1), bias=False)
            (3): BatchNorm2d(144, eps=1e-05, momentum=0.1, affine=True, track_running_stats=True)
            (4): ReLU()
            (5): Conv2d(144, 144, kernel_size=(3, 3), stride=(1, 1), padding=(1, 1), groups=144, bias=False)
            (6): Conv2d(144, 144, kernel_size=(1, 1), stride=(1, 1), bias=False)
            (7): BatchNorm2d(144, eps=1e-05, momentum=0.1, affine=True, track_running_stats=True)
          )
        )
        (6): Identity()
        (7): SepConv(
          (op): Sequential(
            (0): ReLU()
            (1): Conv2d(144, 144, kernel_size=(3, 3), stride=(1, 1), padding=(1, 1), groups=144, bias=False)
            (2): Conv2d(144, 144, kernel_size=(1, 1), stride=(1, 1), bias=False)
            (3): BatchNorm2d(144, eps=1e-05, momentum=0.1, affine=True, track_running_stats=True)
            (4): ReLU()
            (5): Conv2d(144, 144, kernel_size=(3, 3), stride=(1, 1), padding=(1, 1), groups=144, bias=False)
            (6): Conv2d(144, 144, kernel_size=(1, 1), stride=(1, 1), bias=False)
            (7): BatchNorm2d(144, eps=1e-05, momentum=0.1, affine=True, track_running_stats=True)
          )
        )
      )
    )
    (18): Cell(
      (preprocess0): ReLUConvBN(
        (op): Sequential(
          (0): ReLU()
          (1): Conv2d(576, 144, kernel_size=(1, 1), stride=(1, 1), bias=False)
          (2): BatchNorm2d(144, eps=1e-05, momentum=0.1, affine=True, track_running_stats=True)
        )
      )
      (preprocess1): ReLUConvBN(
        (op): Sequential(
          (0): ReLU()
          (1): Conv2d(576, 144, kernel_size=(1, 1), stride=(1, 1), bias=False)
          (2): BatchNorm2d(144, eps=1e-05, momentum=0.1, affine=True, track_running_stats=True)
        )
      )
      (_ops): ModuleList(
        (0): Identity()
        (1): Identity()
        (2): Identity()
        (3): SepConv(
          (op): Sequential(
            (0): ReLU()
            (1): Conv2d(144, 144, kernel_size=(3, 3), stride=(1, 1), padding=(1, 1), groups=144, bias=False)
            (2): Conv2d(144, 144, kernel_size=(1, 1), stride=(1, 1), bias=False)
            (3): BatchNorm2d(144, eps=1e-05, momentum=0.1, affine=True, track_running_stats=True)
            (4): ReLU()
            (5): Conv2d(144, 144, kernel_size=(3, 3), stride=(1, 1), padding=(1, 1), groups=144, bias=False)
            (6): Conv2d(144, 144, kernel_size=(1, 1), stride=(1, 1), bias=False)
            (7): BatchNorm2d(144, eps=1e-05, momentum=0.1, affine=True, track_running_stats=True)
          )
        )
        (4): Identity()
        (5): SepConv(
          (op): Sequential(
            (0): ReLU()
            (1): Conv2d(144, 144, kernel_size=(3, 3), stride=(1, 1), padding=(1, 1), groups=144, bias=False)
            (2): Conv2d(144, 144, kernel_size=(1, 1), stride=(1, 1), bias=False)
            (3): BatchNorm2d(144, eps=1e-05, momentum=0.1, affine=True, track_running_stats=True)
            (4): ReLU()
            (5): Conv2d(144, 144, kernel_size=(3, 3), stride=(1, 1), padding=(1, 1), groups=144, bias=False)
            (6): Conv2d(144, 144, kernel_size=(1, 1), stride=(1, 1), bias=False)
            (7): BatchNorm2d(144, eps=1e-05, momentum=0.1, affine=True, track_running_stats=True)
          )
        )
        (6): Identity()
        (7): SepConv(
          (op): Sequential(
            (0): ReLU()
            (1): Conv2d(144, 144, kernel_size=(3, 3), stride=(1, 1), padding=(1, 1), groups=144, bias=False)
            (2): Conv2d(144, 144, kernel_size=(1, 1), stride=(1, 1), bias=False)
            (3): BatchNorm2d(144, eps=1e-05, momentum=0.1, affine=True, track_running_stats=True)
            (4): ReLU()
            (5): Conv2d(144, 144, kernel_size=(3, 3), stride=(1, 1), padding=(1, 1), groups=144, bias=False)
            (6): Conv2d(144, 144, kernel_size=(1, 1), stride=(1, 1), bias=False)
            (7): BatchNorm2d(144, eps=1e-05, momentum=0.1, affine=True, track_running_stats=True)
          )
        )
      )
    )
    (19): Cell(
      (preprocess0): ReLUConvBN(
        (op): Sequential(
          (0): ReLU()
          (1): Conv2d(576, 144, kernel_size=(1, 1), stride=(1, 1), bias=False)
          (2): BatchNorm2d(144, eps=1e-05, momentum=0.1, affine=True, track_running_stats=True)
        )
      )
      (preprocess1): ReLUConvBN(
        (op): Sequential(
          (0): ReLU()
          (1): Conv2d(576, 144, kernel_size=(1, 1), stride=(1, 1), bias=False)
          (2): BatchNorm2d(144, eps=1e-05, momentum=0.1, affine=True, track_running_stats=True)
        )
      )
      (_ops): ModuleList(
        (0): Identity()
        (1): Identity()
        (2): Identity()
        (3): SepConv(
          (op): Sequential(
            (0): ReLU()
            (1): Conv2d(144, 144, kernel_size=(3, 3), stride=(1, 1), padding=(1, 1), groups=144, bias=False)
            (2): Conv2d(144, 144, kernel_size=(1, 1), stride=(1, 1), bias=False)
            (3): BatchNorm2d(144, eps=1e-05, momentum=0.1, affine=True, track_running_stats=True)
            (4): ReLU()
            (5): Conv2d(144, 144, kernel_size=(3, 3), stride=(1, 1), padding=(1, 1), groups=144, bias=False)
            (6): Conv2d(144, 144, kernel_size=(1, 1), stride=(1, 1), bias=False)
            (7): BatchNorm2d(144, eps=1e-05, momentum=0.1, affine=True, track_running_stats=True)
          )
        )
        (4): Identity()
        (5): SepConv(
          (op): Sequential(
            (0): ReLU()
            (1): Conv2d(144, 144, kernel_size=(3, 3), stride=(1, 1), padding=(1, 1), groups=144, bias=False)
            (2): Conv2d(144, 144, kernel_size=(1, 1), stride=(1, 1), bias=False)
            (3): BatchNorm2d(144, eps=1e-05, momentum=0.1, affine=True, track_running_stats=True)
            (4): ReLU()
            (5): Conv2d(144, 144, kernel_size=(3, 3), stride=(1, 1), padding=(1, 1), groups=144, bias=False)
            (6): Conv2d(144, 144, kernel_size=(1, 1), stride=(1, 1), bias=False)
            (7): BatchNorm2d(144, eps=1e-05, momentum=0.1, affine=True, track_running_stats=True)
          )
        )
        (6): Identity()
        (7): SepConv(
          (op): Sequential(
            (0): ReLU()
            (1): Conv2d(144, 144, kernel_size=(3, 3), stride=(1, 1), padding=(1, 1), groups=144, bias=False)
            (2): Conv2d(144, 144, kernel_size=(1, 1), stride=(1, 1), bias=False)
            (3): BatchNorm2d(144, eps=1e-05, momentum=0.1, affine=True, track_running_stats=True)
            (4): ReLU()
            (5): Conv2d(144, 144, kernel_size=(3, 3), stride=(1, 1), padding=(1, 1), groups=144, bias=False)
            (6): Conv2d(144, 144, kernel_size=(1, 1), stride=(1, 1), bias=False)
            (7): BatchNorm2d(144, eps=1e-05, momentum=0.1, affine=True, track_running_stats=True)
          )
        )
      )
    )
  )
  (auxiliary_head): AuxiliaryHeadCIFAR(
    (features): Sequential(
      (0): ReLU(inplace)
      (1): AvgPool2d(kernel_size=5, stride=3, padding=0)
      (2): Conv2d(576, 128, kernel_size=(1, 1), stride=(1, 1), bias=False)
      (3): BatchNorm2d(128, eps=1e-05, momentum=0.1, affine=True, track_running_stats=True)
      (4): ReLU(inplace)
      (5): Conv2d(128, 768, kernel_size=(2, 2), stride=(1, 1), bias=False)
      (6): BatchNorm2d(768, eps=1e-05, momentum=0.1, affine=True, track_running_stats=True)
      (7): ReLU(inplace)
    )
    (classifier): Linear(in_features=768, out_features=10, bias=True)
  )
  (global_pooling): AdaptiveAvgPool2d(output_size=1)
  (classifier): Linear(in_features=576, out_features=10, bias=True)
)
Parameters : 3.01944 - 0.476426 = 2.543 MB
config        : Configure(type='cosine', batch_size=96, epochs=600, momentum=0.9, decay=0.0003, LR=0.025, LR_MIN=0.0001, auxiliary=True, auxiliary_weight=0.4, grad_clip=5.0, cutout=16, drop_path_prob=0.2)
genotype      : Genotype(normal=[('skip_connect', 0, 0.16), ('skip_connect', 1, 0.13), ('skip_connect', 0, 0.17), ('sep_conv_3x3', 2, 0.15), ('skip_connect', 0, 0.17), ('sep_conv_3x3', 2, 0.15), ('skip_connect', 0, 0.16), ('sep_conv_3x3', 2, 0.15)], normal_concat=[2, 3, 4, 5], reduce=None, reduce_concat=[2, 3, 4, 5])
…
