…
genotype      : Genotype(normal=[('skip_connect', 0, 0.13017432391643524), ('skip_connect', 1, 0.12947972118854523), ('skip_connect', 0, 0.13062666356563568), ('sep_conv_5x5', 2, 0.12980839610099792), ('sep_conv_3x3', 3, 0.12923765182495117), ('skip_connect', 0, 0.12901571393013), ('sep_conv_5x5', 4, 0.12938997149467468), ('sep_conv_3x3', 3, 0.1289220005273819)], normal_concat=range(2, 6), reduce=[('sep_conv_5x5', 0, 0.12862831354141235), ('sep_conv_3x3', 1, 0.12783904373645782), ('sep_conv_5x5', 2, 0.12725995481014252), ('sep_conv_5x5', 1, 0.12705285847187042), ('dil_conv_5x5', 2, 0.12797553837299347), ('sep_conv_3x3', 1, 0.12737272679805756), ('sep_conv_5x5', 0, 0.12833961844444275), ('sep_conv_5x5', 1, 0.12758426368236542)], reduce_concat=range(2, 6))
init_channels : 50
layers        : 14
class_num     : 1000
Network =>
NetworkImageNet(
  (stem0): Sequential(
    (0): Conv2d(3, 25, kernel_size=(3, 3), stride=(2, 2), padding=(1, 1), bias=False)
    (1): BatchNorm2d(25, eps=1e-05, momentum=0.1, affine=True, track_running_stats=True)
    (2): ReLU(inplace)
    (3): Conv2d(25, 50, kernel_size=(3, 3), stride=(2, 2), padding=(1, 1), bias=False)
    (4): BatchNorm2d(50, eps=1e-05, momentum=0.1, affine=True, track_running_stats=True)
  )
  (stem1): Sequential(
    (0): ReLU(inplace)
    (1): Conv2d(50, 50, kernel_size=(3, 3), stride=(2, 2), padding=(1, 1), bias=False)
    (2): BatchNorm2d(50, eps=1e-05, momentum=0.1, affine=True, track_running_stats=True)
  )
  (cells): ModuleList(
    (0): Cell(
      (preprocess0): FactorizedReduce(
        (relu): ReLU()
        (conv_1): Conv2d(50, 25, kernel_size=(1, 1), stride=(2, 2), bias=False)
        (conv_2): Conv2d(50, 25, kernel_size=(1, 1), stride=(2, 2), bias=False)
        (bn): BatchNorm2d(50, eps=1e-05, momentum=0.1, affine=True, track_running_stats=True)
        (pad): ConstantPad2d(padding=(0, 1, 0, 1), value=0)
      )
      (preprocess1): ReLUConvBN(
        (op): Sequential(
          (0): ReLU()
          (1): Conv2d(50, 50, kernel_size=(1, 1), stride=(1, 1), bias=False)
          (2): BatchNorm2d(50, eps=1e-05, momentum=0.1, affine=True, track_running_stats=True)
        )
      )
      (_ops): ModuleList(
        (0): Identity()
        (1): Identity()
        (2): Identity()
        (3): SepConv(
          (op): Sequential(
            (0): ReLU()
            (1): Conv2d(50, 50, kernel_size=(5, 5), stride=(1, 1), padding=(2, 2), groups=50, bias=False)
            (2): Conv2d(50, 50, kernel_size=(1, 1), stride=(1, 1), bias=False)
            (3): BatchNorm2d(50, eps=1e-05, momentum=0.1, affine=True, track_running_stats=True)
            (4): ReLU()
            (5): Conv2d(50, 50, kernel_size=(5, 5), stride=(1, 1), padding=(2, 2), groups=50, bias=False)
            (6): Conv2d(50, 50, kernel_size=(1, 1), stride=(1, 1), bias=False)
            (7): BatchNorm2d(50, eps=1e-05, momentum=0.1, affine=True, track_running_stats=True)
          )
        )
        (4): SepConv(
          (op): Sequential(
            (0): ReLU()
            (1): Conv2d(50, 50, kernel_size=(3, 3), stride=(1, 1), padding=(1, 1), groups=50, bias=False)
            (2): Conv2d(50, 50, kernel_size=(1, 1), stride=(1, 1), bias=False)
            (3): BatchNorm2d(50, eps=1e-05, momentum=0.1, affine=True, track_running_stats=True)
            (4): ReLU()
            (5): Conv2d(50, 50, kernel_size=(3, 3), stride=(1, 1), padding=(1, 1), groups=50, bias=False)
            (6): Conv2d(50, 50, kernel_size=(1, 1), stride=(1, 1), bias=False)
            (7): BatchNorm2d(50, eps=1e-05, momentum=0.1, affine=True, track_running_stats=True)
          )
        )
        (5): Identity()
        (6): SepConv(
          (op): Sequential(
            (0): ReLU()
            (1): Conv2d(50, 50, kernel_size=(5, 5), stride=(1, 1), padding=(2, 2), groups=50, bias=False)
            (2): Conv2d(50, 50, kernel_size=(1, 1), stride=(1, 1), bias=False)
            (3): BatchNorm2d(50, eps=1e-05, momentum=0.1, affine=True, track_running_stats=True)
            (4): ReLU()
            (5): Conv2d(50, 50, kernel_size=(5, 5), stride=(1, 1), padding=(2, 2), groups=50, bias=False)
            (6): Conv2d(50, 50, kernel_size=(1, 1), stride=(1, 1), bias=False)
            (7): BatchNorm2d(50, eps=1e-05, momentum=0.1, affine=True, track_running_stats=True)
          )
        )
        (7): SepConv(
          (op): Sequential(
            (0): ReLU()
            (1): Conv2d(50, 50, kernel_size=(3, 3), stride=(1, 1), padding=(1, 1), groups=50, bias=False)
            (2): Conv2d(50, 50, kernel_size=(1, 1), stride=(1, 1), bias=False)
            (3): BatchNorm2d(50, eps=1e-05, momentum=0.1, affine=True, track_running_stats=True)
            (4): ReLU()
            (5): Conv2d(50, 50, kernel_size=(3, 3), stride=(1, 1), padding=(1, 1), groups=50, bias=False)
            (6): Conv2d(50, 50, kernel_size=(1, 1), stride=(1, 1), bias=False)
            (7): BatchNorm2d(50, eps=1e-05, momentum=0.1, affine=True, track_running_stats=True)
          )
        )
      )
    )
    (1): Cell(
      (preprocess0): ReLUConvBN(
        (op): Sequential(
          (0): ReLU()
          (1): Conv2d(50, 50, kernel_size=(1, 1), stride=(1, 1), bias=False)
          (2): BatchNorm2d(50, eps=1e-05, momentum=0.1, affine=True, track_running_stats=True)
        )
      )
      (preprocess1): ReLUConvBN(
        (op): Sequential(
          (0): ReLU()
          (1): Conv2d(200, 50, kernel_size=(1, 1), stride=(1, 1), bias=False)
          (2): BatchNorm2d(50, eps=1e-05, momentum=0.1, affine=True, track_running_stats=True)
        )
      )
      (_ops): ModuleList(
        (0): Identity()
        (1): Identity()
        (2): Identity()
        (3): SepConv(
          (op): Sequential(
            (0): ReLU()
            (1): Conv2d(50, 50, kernel_size=(5, 5), stride=(1, 1), padding=(2, 2), groups=50, bias=False)
            (2): Conv2d(50, 50, kernel_size=(1, 1), stride=(1, 1), bias=False)
            (3): BatchNorm2d(50, eps=1e-05, momentum=0.1, affine=True, track_running_stats=True)
            (4): ReLU()
            (5): Conv2d(50, 50, kernel_size=(5, 5), stride=(1, 1), padding=(2, 2), groups=50, bias=False)
            (6): Conv2d(50, 50, kernel_size=(1, 1), stride=(1, 1), bias=False)
            (7): BatchNorm2d(50, eps=1e-05, momentum=0.1, affine=True, track_running_stats=True)
          )
        )
        (4): SepConv(
          (op): Sequential(
            (0): ReLU()
            (1): Conv2d(50, 50, kernel_size=(3, 3), stride=(1, 1), padding=(1, 1), groups=50, bias=False)
            (2): Conv2d(50, 50, kernel_size=(1, 1), stride=(1, 1), bias=False)
            (3): BatchNorm2d(50, eps=1e-05, momentum=0.1, affine=True, track_running_stats=True)
            (4): ReLU()
            (5): Conv2d(50, 50, kernel_size=(3, 3), stride=(1, 1), padding=(1, 1), groups=50, bias=False)
            (6): Conv2d(50, 50, kernel_size=(1, 1), stride=(1, 1), bias=False)
            (7): BatchNorm2d(50, eps=1e-05, momentum=0.1, affine=True, track_running_stats=True)
          )
        )
        (5): Identity()
        (6): SepConv(
          (op): Sequential(
            (0): ReLU()
            (1): Conv2d(50, 50, kernel_size=(5, 5), stride=(1, 1), padding=(2, 2), groups=50, bias=False)
            (2): Conv2d(50, 50, kernel_size=(1, 1), stride=(1, 1), bias=False)
            (3): BatchNorm2d(50, eps=1e-05, momentum=0.1, affine=True, track_running_stats=True)
            (4): ReLU()
            (5): Conv2d(50, 50, kernel_size=(5, 5), stride=(1, 1), padding=(2, 2), groups=50, bias=False)
            (6): Conv2d(50, 50, kernel_size=(1, 1), stride=(1, 1), bias=False)
            (7): BatchNorm2d(50, eps=1e-05, momentum=0.1, affine=True, track_running_stats=True)
          )
        )
        (7): SepConv(
          (op): Sequential(
            (0): ReLU()
            (1): Conv2d(50, 50, kernel_size=(3, 3), stride=(1, 1), padding=(1, 1), groups=50, bias=False)
            (2): Conv2d(50, 50, kernel_size=(1, 1), stride=(1, 1), bias=False)
            (3): BatchNorm2d(50, eps=1e-05, momentum=0.1, affine=True, track_running_stats=True)
            (4): ReLU()
            (5): Conv2d(50, 50, kernel_size=(3, 3), stride=(1, 1), padding=(1, 1), groups=50, bias=False)
            (6): Conv2d(50, 50, kernel_size=(1, 1), stride=(1, 1), bias=False)
            (7): BatchNorm2d(50, eps=1e-05, momentum=0.1, affine=True, track_running_stats=True)
          )
        )
      )
    )
    (2): Cell(
      (preprocess0): ReLUConvBN(
        (op): Sequential(
          (0): ReLU()
          (1): Conv2d(200, 50, kernel_size=(1, 1), stride=(1, 1), bias=False)
          (2): BatchNorm2d(50, eps=1e-05, momentum=0.1, affine=True, track_running_stats=True)
        )
      )
      (preprocess1): ReLUConvBN(
        (op): Sequential(
          (0): ReLU()
          (1): Conv2d(200, 50, kernel_size=(1, 1), stride=(1, 1), bias=False)
          (2): BatchNorm2d(50, eps=1e-05, momentum=0.1, affine=True, track_running_stats=True)
        )
      )
      (_ops): ModuleList(
        (0): Identity()
        (1): Identity()
        (2): Identity()
        (3): SepConv(
          (op): Sequential(
            (0): ReLU()
            (1): Conv2d(50, 50, kernel_size=(5, 5), stride=(1, 1), padding=(2, 2), groups=50, bias=False)
            (2): Conv2d(50, 50, kernel_size=(1, 1), stride=(1, 1), bias=False)
            (3): BatchNorm2d(50, eps=1e-05, momentum=0.1, affine=True, track_running_stats=True)
            (4): ReLU()
            (5): Conv2d(50, 50, kernel_size=(5, 5), stride=(1, 1), padding=(2, 2), groups=50, bias=False)
            (6): Conv2d(50, 50, kernel_size=(1, 1), stride=(1, 1), bias=False)
            (7): BatchNorm2d(50, eps=1e-05, momentum=0.1, affine=True, track_running_stats=True)
          )
        )
        (4): SepConv(
          (op): Sequential(
            (0): ReLU()
            (1): Conv2d(50, 50, kernel_size=(3, 3), stride=(1, 1), padding=(1, 1), groups=50, bias=False)
            (2): Conv2d(50, 50, kernel_size=(1, 1), stride=(1, 1), bias=False)
            (3): BatchNorm2d(50, eps=1e-05, momentum=0.1, affine=True, track_running_stats=True)
            (4): ReLU()
            (5): Conv2d(50, 50, kernel_size=(3, 3), stride=(1, 1), padding=(1, 1), groups=50, bias=False)
            (6): Conv2d(50, 50, kernel_size=(1, 1), stride=(1, 1), bias=False)
            (7): BatchNorm2d(50, eps=1e-05, momentum=0.1, affine=True, track_running_stats=True)
          )
        )
        (5): Identity()
        (6): SepConv(
          (op): Sequential(
            (0): ReLU()
            (1): Conv2d(50, 50, kernel_size=(5, 5), stride=(1, 1), padding=(2, 2), groups=50, bias=False)
            (2): Conv2d(50, 50, kernel_size=(1, 1), stride=(1, 1), bias=False)
            (3): BatchNorm2d(50, eps=1e-05, momentum=0.1, affine=True, track_running_stats=True)
            (4): ReLU()
            (5): Conv2d(50, 50, kernel_size=(5, 5), stride=(1, 1), padding=(2, 2), groups=50, bias=False)
            (6): Conv2d(50, 50, kernel_size=(1, 1), stride=(1, 1), bias=False)
            (7): BatchNorm2d(50, eps=1e-05, momentum=0.1, affine=True, track_running_stats=True)
          )
        )
        (7): SepConv(
          (op): Sequential(
            (0): ReLU()
            (1): Conv2d(50, 50, kernel_size=(3, 3), stride=(1, 1), padding=(1, 1), groups=50, bias=False)
            (2): Conv2d(50, 50, kernel_size=(1, 1), stride=(1, 1), bias=False)
            (3): BatchNorm2d(50, eps=1e-05, momentum=0.1, affine=True, track_running_stats=True)
            (4): ReLU()
            (5): Conv2d(50, 50, kernel_size=(3, 3), stride=(1, 1), padding=(1, 1), groups=50, bias=False)
            (6): Conv2d(50, 50, kernel_size=(1, 1), stride=(1, 1), bias=False)
            (7): BatchNorm2d(50, eps=1e-05, momentum=0.1, affine=True, track_running_stats=True)
          )
        )
      )
    )
    (3): Cell(
      (preprocess0): ReLUConvBN(
        (op): Sequential(
          (0): ReLU()
          (1): Conv2d(200, 50, kernel_size=(1, 1), stride=(1, 1), bias=False)
          (2): BatchNorm2d(50, eps=1e-05, momentum=0.1, affine=True, track_running_stats=True)
        )
      )
      (preprocess1): ReLUConvBN(
        (op): Sequential(
          (0): ReLU()
          (1): Conv2d(200, 50, kernel_size=(1, 1), stride=(1, 1), bias=False)
          (2): BatchNorm2d(50, eps=1e-05, momentum=0.1, affine=True, track_running_stats=True)
        )
      )
      (_ops): ModuleList(
        (0): Identity()
        (1): Identity()
        (2): Identity()
        (3): SepConv(
          (op): Sequential(
            (0): ReLU()
            (1): Conv2d(50, 50, kernel_size=(5, 5), stride=(1, 1), padding=(2, 2), groups=50, bias=False)
            (2): Conv2d(50, 50, kernel_size=(1, 1), stride=(1, 1), bias=False)
            (3): BatchNorm2d(50, eps=1e-05, momentum=0.1, affine=True, track_running_stats=True)
            (4): ReLU()
            (5): Conv2d(50, 50, kernel_size=(5, 5), stride=(1, 1), padding=(2, 2), groups=50, bias=False)
            (6): Conv2d(50, 50, kernel_size=(1, 1), stride=(1, 1), bias=False)
            (7): BatchNorm2d(50, eps=1e-05, momentum=0.1, affine=True, track_running_stats=True)
          )
        )
        (4): SepConv(
          (op): Sequential(
            (0): ReLU()
            (1): Conv2d(50, 50, kernel_size=(3, 3), stride=(1, 1), padding=(1, 1), groups=50, bias=False)
            (2): Conv2d(50, 50, kernel_size=(1, 1), stride=(1, 1), bias=False)
            (3): BatchNorm2d(50, eps=1e-05, momentum=0.1, affine=True, track_running_stats=True)
            (4): ReLU()
            (5): Conv2d(50, 50, kernel_size=(3, 3), stride=(1, 1), padding=(1, 1), groups=50, bias=False)
            (6): Conv2d(50, 50, kernel_size=(1, 1), stride=(1, 1), bias=False)
            (7): BatchNorm2d(50, eps=1e-05, momentum=0.1, affine=True, track_running_stats=True)
          )
        )
        (5): Identity()
        (6): SepConv(
          (op): Sequential(
            (0): ReLU()
            (1): Conv2d(50, 50, kernel_size=(5, 5), stride=(1, 1), padding=(2, 2), groups=50, bias=False)
            (2): Conv2d(50, 50, kernel_size=(1, 1), stride=(1, 1), bias=False)
            (3): BatchNorm2d(50, eps=1e-05, momentum=0.1, affine=True, track_running_stats=True)
            (4): ReLU()
            (5): Conv2d(50, 50, kernel_size=(5, 5), stride=(1, 1), padding=(2, 2), groups=50, bias=False)
            (6): Conv2d(50, 50, kernel_size=(1, 1), stride=(1, 1), bias=False)
            (7): BatchNorm2d(50, eps=1e-05, momentum=0.1, affine=True, track_running_stats=True)
          )
        )
        (7): SepConv(
          (op): Sequential(
            (0): ReLU()
            (1): Conv2d(50, 50, kernel_size=(3, 3), stride=(1, 1), padding=(1, 1), groups=50, bias=False)
            (2): Conv2d(50, 50, kernel_size=(1, 1), stride=(1, 1), bias=False)
            (3): BatchNorm2d(50, eps=1e-05, momentum=0.1, affine=True, track_running_stats=True)
            (4): ReLU()
            (5): Conv2d(50, 50, kernel_size=(3, 3), stride=(1, 1), padding=(1, 1), groups=50, bias=False)
            (6): Conv2d(50, 50, kernel_size=(1, 1), stride=(1, 1), bias=False)
            (7): BatchNorm2d(50, eps=1e-05, momentum=0.1, affine=True, track_running_stats=True)
          )
        )
      )
    )
    (4): Cell(
      (preprocess0): ReLUConvBN(
        (op): Sequential(
          (0): ReLU()
          (1): Conv2d(200, 100, kernel_size=(1, 1), stride=(1, 1), bias=False)
          (2): BatchNorm2d(100, eps=1e-05, momentum=0.1, affine=True, track_running_stats=True)
        )
      )
      (preprocess1): ReLUConvBN(
        (op): Sequential(
          (0): ReLU()
          (1): Conv2d(200, 100, kernel_size=(1, 1), stride=(1, 1), bias=False)
          (2): BatchNorm2d(100, eps=1e-05, momentum=0.1, affine=True, track_running_stats=True)
        )
      )
      (_ops): ModuleList(
        (0): SepConv(
          (op): Sequential(
            (0): ReLU()
            (1): Conv2d(100, 100, kernel_size=(5, 5), stride=(2, 2), padding=(2, 2), groups=100, bias=False)
            (2): Conv2d(100, 100, kernel_size=(1, 1), stride=(1, 1), bias=False)
            (3): BatchNorm2d(100, eps=1e-05, momentum=0.1, affine=True, track_running_stats=True)
            (4): ReLU()
            (5): Conv2d(100, 100, kernel_size=(5, 5), stride=(1, 1), padding=(2, 2), groups=100, bias=False)
            (6): Conv2d(100, 100, kernel_size=(1, 1), stride=(1, 1), bias=False)
            (7): BatchNorm2d(100, eps=1e-05, momentum=0.1, affine=True, track_running_stats=True)
          )
        )
        (1): SepConv(
          (op): Sequential(
            (0): ReLU()
            (1): Conv2d(100, 100, kernel_size=(3, 3), stride=(2, 2), padding=(1, 1), groups=100, bias=False)
            (2): Conv2d(100, 100, kernel_size=(1, 1), stride=(1, 1), bias=False)
            (3): BatchNorm2d(100, eps=1e-05, momentum=0.1, affine=True, track_running_stats=True)
            (4): ReLU()
            (5): Conv2d(100, 100, kernel_size=(3, 3), stride=(1, 1), padding=(1, 1), groups=100, bias=False)
            (6): Conv2d(100, 100, kernel_size=(1, 1), stride=(1, 1), bias=False)
            (7): BatchNorm2d(100, eps=1e-05, momentum=0.1, affine=True, track_running_stats=True)
          )
        )
        (2): SepConv(
          (op): Sequential(
            (0): ReLU()
            (1): Conv2d(100, 100, kernel_size=(5, 5), stride=(1, 1), padding=(2, 2), groups=100, bias=False)
            (2): Conv2d(100, 100, kernel_size=(1, 1), stride=(1, 1), bias=False)
            (3): BatchNorm2d(100, eps=1e-05, momentum=0.1, affine=True, track_running_stats=True)
            (4): ReLU()
            (5): Conv2d(100, 100, kernel_size=(5, 5), stride=(1, 1), padding=(2, 2), groups=100, bias=False)
            (6): Conv2d(100, 100, kernel_size=(1, 1), stride=(1, 1), bias=False)
            (7): BatchNorm2d(100, eps=1e-05, momentum=0.1, affine=True, track_running_stats=True)
          )
        )
        (3): SepConv(
          (op): Sequential(
            (0): ReLU()
            (1): Conv2d(100, 100, kernel_size=(5, 5), stride=(2, 2), padding=(2, 2), groups=100, bias=False)
            (2): Conv2d(100, 100, kernel_size=(1, 1), stride=(1, 1), bias=False)
            (3): BatchNorm2d(100, eps=1e-05, momentum=0.1, affine=True, track_running_stats=True)
            (4): ReLU()
            (5): Conv2d(100, 100, kernel_size=(5, 5), stride=(1, 1), padding=(2, 2), groups=100, bias=False)
            (6): Conv2d(100, 100, kernel_size=(1, 1), stride=(1, 1), bias=False)
            (7): BatchNorm2d(100, eps=1e-05, momentum=0.1, affine=True, track_running_stats=True)
          )
        )
        (4): DilConv(
          (op): Sequential(
            (0): ReLU()
            (1): Conv2d(100, 100, kernel_size=(5, 5), stride=(1, 1), padding=(4, 4), dilation=(2, 2), groups=100, bias=False)
            (2): Conv2d(100, 100, kernel_size=(1, 1), stride=(1, 1), bias=False)
            (3): BatchNorm2d(100, eps=1e-05, momentum=0.1, affine=True, track_running_stats=True)
          )
        )
        (5): SepConv(
          (op): Sequential(
            (0): ReLU()
            (1): Conv2d(100, 100, kernel_size=(3, 3), stride=(2, 2), padding=(1, 1), groups=100, bias=False)
            (2): Conv2d(100, 100, kernel_size=(1, 1), stride=(1, 1), bias=False)
            (3): BatchNorm2d(100, eps=1e-05, momentum=0.1, affine=True, track_running_stats=True)
            (4): ReLU()
            (5): Conv2d(100, 100, kernel_size=(3, 3), stride=(1, 1), padding=(1, 1), groups=100, bias=False)
            (6): Conv2d(100, 100, kernel_size=(1, 1), stride=(1, 1), bias=False)
            (7): BatchNorm2d(100, eps=1e-05, momentum=0.1, affine=True, track_running_stats=True)
          )
        )
        (6): SepConv(
          (op): Sequential(
            (0): ReLU()
            (1): Conv2d(100, 100, kernel_size=(5, 5), stride=(2, 2), padding=(2, 2), groups=100, bias=False)
            (2): Conv2d(100, 100, kernel_size=(1, 1), stride=(1, 1), bias=False)
            (3): BatchNorm2d(100, eps=1e-05, momentum=0.1, affine=True, track_running_stats=True)
            (4): ReLU()
            (5): Conv2d(100, 100, kernel_size=(5, 5), stride=(1, 1), padding=(2, 2), groups=100, bias=False)
            (6): Conv2d(100, 100, kernel_size=(1, 1), stride=(1, 1), bias=False)
            (7): BatchNorm2d(100, eps=1e-05, momentum=0.1, affine=True, track_running_stats=True)
          )
        )
        (7): SepConv(
          (op): Sequential(
            (0): ReLU()
            (1): Conv2d(100, 100, kernel_size=(5, 5), stride=(2, 2), padding=(2, 2), groups=100, bias=False)
            (2): Conv2d(100, 100, kernel_size=(1, 1), stride=(1, 1), bias=False)
            (3): BatchNorm2d(100, eps=1e-05, momentum=0.1, affine=True, track_running_stats=True)
            (4): ReLU()
            (5): Conv2d(100, 100, kernel_size=(5, 5), stride=(1, 1), padding=(2, 2), groups=100, bias=False)
            (6): Conv2d(100, 100, kernel_size=(1, 1), stride=(1, 1), bias=False)
            (7): BatchNorm2d(100, eps=1e-05, momentum=0.1, affine=True, track_running_stats=True)
          )
        )
      )
    )
    (5): Cell(
      (preprocess0): FactorizedReduce(
        (relu): ReLU()
        (conv_1): Conv2d(200, 50, kernel_size=(1, 1), stride=(2, 2), bias=False)
        (conv_2): Conv2d(200, 50, kernel_size=(1, 1), stride=(2, 2), bias=False)
        (bn): BatchNorm2d(100, eps=1e-05, momentum=0.1, affine=True, track_running_stats=True)
        (pad): ConstantPad2d(padding=(0, 1, 0, 1), value=0)
      )
      (preprocess1): ReLUConvBN(
        (op): Sequential(
          (0): ReLU()
          (1): Conv2d(400, 100, kernel_size=(1, 1), stride=(1, 1), bias=False)
          (2): BatchNorm2d(100, eps=1e-05, momentum=0.1, affine=True, track_running_stats=True)
        )
      )
      (_ops): ModuleList(
        (0): Identity()
        (1): Identity()
        (2): Identity()
        (3): SepConv(
          (op): Sequential(
            (0): ReLU()
            (1): Conv2d(100, 100, kernel_size=(5, 5), stride=(1, 1), padding=(2, 2), groups=100, bias=False)
            (2): Conv2d(100, 100, kernel_size=(1, 1), stride=(1, 1), bias=False)
            (3): BatchNorm2d(100, eps=1e-05, momentum=0.1, affine=True, track_running_stats=True)
            (4): ReLU()
            (5): Conv2d(100, 100, kernel_size=(5, 5), stride=(1, 1), padding=(2, 2), groups=100, bias=False)
            (6): Conv2d(100, 100, kernel_size=(1, 1), stride=(1, 1), bias=False)
            (7): BatchNorm2d(100, eps=1e-05, momentum=0.1, affine=True, track_running_stats=True)
          )
        )
        (4): SepConv(
          (op): Sequential(
            (0): ReLU()
            (1): Conv2d(100, 100, kernel_size=(3, 3), stride=(1, 1), padding=(1, 1), groups=100, bias=False)
            (2): Conv2d(100, 100, kernel_size=(1, 1), stride=(1, 1), bias=False)
            (3): BatchNorm2d(100, eps=1e-05, momentum=0.1, affine=True, track_running_stats=True)
            (4): ReLU()
            (5): Conv2d(100, 100, kernel_size=(3, 3), stride=(1, 1), padding=(1, 1), groups=100, bias=False)
            (6): Conv2d(100, 100, kernel_size=(1, 1), stride=(1, 1), bias=False)
            (7): BatchNorm2d(100, eps=1e-05, momentum=0.1, affine=True, track_running_stats=True)
          )
        )
        (5): Identity()
        (6): SepConv(
          (op): Sequential(
            (0): ReLU()
            (1): Conv2d(100, 100, kernel_size=(5, 5), stride=(1, 1), padding=(2, 2), groups=100, bias=False)
            (2): Conv2d(100, 100, kernel_size=(1, 1), stride=(1, 1), bias=False)
            (3): BatchNorm2d(100, eps=1e-05, momentum=0.1, affine=True, track_running_stats=True)
            (4): ReLU()
            (5): Conv2d(100, 100, kernel_size=(5, 5), stride=(1, 1), padding=(2, 2), groups=100, bias=False)
            (6): Conv2d(100, 100, kernel_size=(1, 1), stride=(1, 1), bias=False)
            (7): BatchNorm2d(100, eps=1e-05, momentum=0.1, affine=True, track_running_stats=True)
          )
        )
        (7): SepConv(
          (op): Sequential(
            (0): ReLU()
            (1): Conv2d(100, 100, kernel_size=(3, 3), stride=(1, 1), padding=(1, 1), groups=100, bias=False)
            (2): Conv2d(100, 100, kernel_size=(1, 1), stride=(1, 1), bias=False)
            (3): BatchNorm2d(100, eps=1e-05, momentum=0.1, affine=True, track_running_stats=True)
            (4): ReLU()
            (5): Conv2d(100, 100, kernel_size=(3, 3), stride=(1, 1), padding=(1, 1), groups=100, bias=False)
            (6): Conv2d(100, 100, kernel_size=(1, 1), stride=(1, 1), bias=False)
            (7): BatchNorm2d(100, eps=1e-05, momentum=0.1, affine=True, track_running_stats=True)
          )
        )
      )
    )
    (6): Cell(
      (preprocess0): ReLUConvBN(
        (op): Sequential(
          (0): ReLU()
          (1): Conv2d(400, 100, kernel_size=(1, 1), stride=(1, 1), bias=False)
          (2): BatchNorm2d(100, eps=1e-05, momentum=0.1, affine=True, track_running_stats=True)
        )
      )
      (preprocess1): ReLUConvBN(
        (op): Sequential(
          (0): ReLU()
          (1): Conv2d(400, 100, kernel_size=(1, 1), stride=(1, 1), bias=False)
          (2): BatchNorm2d(100, eps=1e-05, momentum=0.1, affine=True, track_running_stats=True)
        )
      )
      (_ops): ModuleList(
        (0): Identity()
        (1): Identity()
        (2): Identity()
        (3): SepConv(
          (op): Sequential(
            (0): ReLU()
            (1): Conv2d(100, 100, kernel_size=(5, 5), stride=(1, 1), padding=(2, 2), groups=100, bias=False)
            (2): Conv2d(100, 100, kernel_size=(1, 1), stride=(1, 1), bias=False)
            (3): BatchNorm2d(100, eps=1e-05, momentum=0.1, affine=True, track_running_stats=True)
            (4): ReLU()
            (5): Conv2d(100, 100, kernel_size=(5, 5), stride=(1, 1), padding=(2, 2), groups=100, bias=False)
            (6): Conv2d(100, 100, kernel_size=(1, 1), stride=(1, 1), bias=False)
            (7): BatchNorm2d(100, eps=1e-05, momentum=0.1, affine=True, track_running_stats=True)
          )
        )
        (4): SepConv(
          (op): Sequential(
            (0): ReLU()
            (1): Conv2d(100, 100, kernel_size=(3, 3), stride=(1, 1), padding=(1, 1), groups=100, bias=False)
            (2): Conv2d(100, 100, kernel_size=(1, 1), stride=(1, 1), bias=False)
            (3): BatchNorm2d(100, eps=1e-05, momentum=0.1, affine=True, track_running_stats=True)
            (4): ReLU()
            (5): Conv2d(100, 100, kernel_size=(3, 3), stride=(1, 1), padding=(1, 1), groups=100, bias=False)
            (6): Conv2d(100, 100, kernel_size=(1, 1), stride=(1, 1), bias=False)
            (7): BatchNorm2d(100, eps=1e-05, momentum=0.1, affine=True, track_running_stats=True)
          )
        )
        (5): Identity()
        (6): SepConv(
          (op): Sequential(
            (0): ReLU()
            (1): Conv2d(100, 100, kernel_size=(5, 5), stride=(1, 1), padding=(2, 2), groups=100, bias=False)
            (2): Conv2d(100, 100, kernel_size=(1, 1), stride=(1, 1), bias=False)
            (3): BatchNorm2d(100, eps=1e-05, momentum=0.1, affine=True, track_running_stats=True)
            (4): ReLU()
            (5): Conv2d(100, 100, kernel_size=(5, 5), stride=(1, 1), padding=(2, 2), groups=100, bias=False)
            (6): Conv2d(100, 100, kernel_size=(1, 1), stride=(1, 1), bias=False)
            (7): BatchNorm2d(100, eps=1e-05, momentum=0.1, affine=True, track_running_stats=True)
          )
        )
        (7): SepConv(
          (op): Sequential(
            (0): ReLU()
            (1): Conv2d(100, 100, kernel_size=(3, 3), stride=(1, 1), padding=(1, 1), groups=100, bias=False)
            (2): Conv2d(100, 100, kernel_size=(1, 1), stride=(1, 1), bias=False)
            (3): BatchNorm2d(100, eps=1e-05, momentum=0.1, affine=True, track_running_stats=True)
            (4): ReLU()
            (5): Conv2d(100, 100, kernel_size=(3, 3), stride=(1, 1), padding=(1, 1), groups=100, bias=False)
            (6): Conv2d(100, 100, kernel_size=(1, 1), stride=(1, 1), bias=False)
            (7): BatchNorm2d(100, eps=1e-05, momentum=0.1, affine=True, track_running_stats=True)
          )
        )
      )
    )
    (7): Cell(
      (preprocess0): ReLUConvBN(
        (op): Sequential(
          (0): ReLU()
          (1): Conv2d(400, 100, kernel_size=(1, 1), stride=(1, 1), bias=False)
          (2): BatchNorm2d(100, eps=1e-05, momentum=0.1, affine=True, track_running_stats=True)
        )
      )
      (preprocess1): ReLUConvBN(
        (op): Sequential(
          (0): ReLU()
          (1): Conv2d(400, 100, kernel_size=(1, 1), stride=(1, 1), bias=False)
          (2): BatchNorm2d(100, eps=1e-05, momentum=0.1, affine=True, track_running_stats=True)
        )
      )
      (_ops): ModuleList(
        (0): Identity()
        (1): Identity()
        (2): Identity()
        (3): SepConv(
          (op): Sequential(
            (0): ReLU()
            (1): Conv2d(100, 100, kernel_size=(5, 5), stride=(1, 1), padding=(2, 2), groups=100, bias=False)
            (2): Conv2d(100, 100, kernel_size=(1, 1), stride=(1, 1), bias=False)
            (3): BatchNorm2d(100, eps=1e-05, momentum=0.1, affine=True, track_running_stats=True)
            (4): ReLU()
            (5): Conv2d(100, 100, kernel_size=(5, 5), stride=(1, 1), padding=(2, 2), groups=100, bias=False)
            (6): Conv2d(100, 100, kernel_size=(1, 1), stride=(1, 1), bias=False)
            (7): BatchNorm2d(100, eps=1e-05, momentum=0.1, affine=True, track_running_stats=True)
          )
        )
        (4): SepConv(
          (op): Sequential(
            (0): ReLU()
            (1): Conv2d(100, 100, kernel_size=(3, 3), stride=(1, 1), padding=(1, 1), groups=100, bias=False)
            (2): Conv2d(100, 100, kernel_size=(1, 1), stride=(1, 1), bias=False)
            (3): BatchNorm2d(100, eps=1e-05, momentum=0.1, affine=True, track_running_stats=True)
            (4): ReLU()
            (5): Conv2d(100, 100, kernel_size=(3, 3), stride=(1, 1), padding=(1, 1), groups=100, bias=False)
            (6): Conv2d(100, 100, kernel_size=(1, 1), stride=(1, 1), bias=False)
            (7): BatchNorm2d(100, eps=1e-05, momentum=0.1, affine=True, track_running_stats=True)
          )
        )
        (5): Identity()
        (6): SepConv(
          (op): Sequential(
            (0): ReLU()
            (1): Conv2d(100, 100, kernel_size=(5, 5), stride=(1, 1), padding=(2, 2), groups=100, bias=False)
            (2): Conv2d(100, 100, kernel_size=(1, 1), stride=(1, 1), bias=False)
            (3): BatchNorm2d(100, eps=1e-05, momentum=0.1, affine=True, track_running_stats=True)
            (4): ReLU()
            (5): Conv2d(100, 100, kernel_size=(5, 5), stride=(1, 1), padding=(2, 2), groups=100, bias=False)
            (6): Conv2d(100, 100, kernel_size=(1, 1), stride=(1, 1), bias=False)
            (7): BatchNorm2d(100, eps=1e-05, momentum=0.1, affine=True, track_running_stats=True)
          )
        )
        (7): SepConv(
          (op): Sequential(
            (0): ReLU()
            (1): Conv2d(100, 100, kernel_size=(3, 3), stride=(1, 1), padding=(1, 1), groups=100, bias=False)
            (2): Conv2d(100, 100, kernel_size=(1, 1), stride=(1, 1), bias=False)
            (3): BatchNorm2d(100, eps=1e-05, momentum=0.1, affine=True, track_running_stats=True)
            (4): ReLU()
            (5): Conv2d(100, 100, kernel_size=(3, 3), stride=(1, 1), padding=(1, 1), groups=100, bias=False)
            (6): Conv2d(100, 100, kernel_size=(1, 1), stride=(1, 1), bias=False)
            (7): BatchNorm2d(100, eps=1e-05, momentum=0.1, affine=True, track_running_stats=True)
          )
        )
      )
    )
    (8): Cell(
      (preprocess0): ReLUConvBN(
        (op): Sequential(
          (0): ReLU()
          (1): Conv2d(400, 100, kernel_size=(1, 1), stride=(1, 1), bias=False)
          (2): BatchNorm2d(100, eps=1e-05, momentum=0.1, affine=True, track_running_stats=True)
        )
      )
      (preprocess1): ReLUConvBN(
        (op): Sequential(
          (0): ReLU()
          (1): Conv2d(400, 100, kernel_size=(1, 1), stride=(1, 1), bias=False)
          (2): BatchNorm2d(100, eps=1e-05, momentum=0.1, affine=True, track_running_stats=True)
        )
      )
      (_ops): ModuleList(
        (0): Identity()
        (1): Identity()
        (2): Identity()
        (3): SepConv(
          (op): Sequential(
            (0): ReLU()
            (1): Conv2d(100, 100, kernel_size=(5, 5), stride=(1, 1), padding=(2, 2), groups=100, bias=False)
            (2): Conv2d(100, 100, kernel_size=(1, 1), stride=(1, 1), bias=False)
            (3): BatchNorm2d(100, eps=1e-05, momentum=0.1, affine=True, track_running_stats=True)
            (4): ReLU()
            (5): Conv2d(100, 100, kernel_size=(5, 5), stride=(1, 1), padding=(2, 2), groups=100, bias=False)
            (6): Conv2d(100, 100, kernel_size=(1, 1), stride=(1, 1), bias=False)
            (7): BatchNorm2d(100, eps=1e-05, momentum=0.1, affine=True, track_running_stats=True)
          )
        )
        (4): SepConv(
          (op): Sequential(
            (0): ReLU()
            (1): Conv2d(100, 100, kernel_size=(3, 3), stride=(1, 1), padding=(1, 1), groups=100, bias=False)
            (2): Conv2d(100, 100, kernel_size=(1, 1), stride=(1, 1), bias=False)
            (3): BatchNorm2d(100, eps=1e-05, momentum=0.1, affine=True, track_running_stats=True)
            (4): ReLU()
            (5): Conv2d(100, 100, kernel_size=(3, 3), stride=(1, 1), padding=(1, 1), groups=100, bias=False)
            (6): Conv2d(100, 100, kernel_size=(1, 1), stride=(1, 1), bias=False)
            (7): BatchNorm2d(100, eps=1e-05, momentum=0.1, affine=True, track_running_stats=True)
          )
        )
        (5): Identity()
        (6): SepConv(
          (op): Sequential(
            (0): ReLU()
            (1): Conv2d(100, 100, kernel_size=(5, 5), stride=(1, 1), padding=(2, 2), groups=100, bias=False)
            (2): Conv2d(100, 100, kernel_size=(1, 1), stride=(1, 1), bias=False)
            (3): BatchNorm2d(100, eps=1e-05, momentum=0.1, affine=True, track_running_stats=True)
            (4): ReLU()
            (5): Conv2d(100, 100, kernel_size=(5, 5), stride=(1, 1), padding=(2, 2), groups=100, bias=False)
            (6): Conv2d(100, 100, kernel_size=(1, 1), stride=(1, 1), bias=False)
            (7): BatchNorm2d(100, eps=1e-05, momentum=0.1, affine=True, track_running_stats=True)
          )
        )
        (7): SepConv(
          (op): Sequential(
            (0): ReLU()
            (1): Conv2d(100, 100, kernel_size=(3, 3), stride=(1, 1), padding=(1, 1), groups=100, bias=False)
            (2): Conv2d(100, 100, kernel_size=(1, 1), stride=(1, 1), bias=False)
            (3): BatchNorm2d(100, eps=1e-05, momentum=0.1, affine=True, track_running_stats=True)
            (4): ReLU()
            (5): Conv2d(100, 100, kernel_size=(3, 3), stride=(1, 1), padding=(1, 1), groups=100, bias=False)
            (6): Conv2d(100, 100, kernel_size=(1, 1), stride=(1, 1), bias=False)
            (7): BatchNorm2d(100, eps=1e-05, momentum=0.1, affine=True, track_running_stats=True)
          )
        )
      )
    )
    (9): Cell(
      (preprocess0): ReLUConvBN(
        (op): Sequential(
          (0): ReLU()
          (1): Conv2d(400, 200, kernel_size=(1, 1), stride=(1, 1), bias=False)
          (2): BatchNorm2d(200, eps=1e-05, momentum=0.1, affine=True, track_running_stats=True)
        )
      )
      (preprocess1): ReLUConvBN(
        (op): Sequential(
          (0): ReLU()
          (1): Conv2d(400, 200, kernel_size=(1, 1), stride=(1, 1), bias=False)
          (2): BatchNorm2d(200, eps=1e-05, momentum=0.1, affine=True, track_running_stats=True)
        )
      )
      (_ops): ModuleList(
        (0): SepConv(
          (op): Sequential(
            (0): ReLU()
            (1): Conv2d(200, 200, kernel_size=(5, 5), stride=(2, 2), padding=(2, 2), groups=200, bias=False)
            (2): Conv2d(200, 200, kernel_size=(1, 1), stride=(1, 1), bias=False)
            (3): BatchNorm2d(200, eps=1e-05, momentum=0.1, affine=True, track_running_stats=True)
            (4): ReLU()
            (5): Conv2d(200, 200, kernel_size=(5, 5), stride=(1, 1), padding=(2, 2), groups=200, bias=False)
            (6): Conv2d(200, 200, kernel_size=(1, 1), stride=(1, 1), bias=False)
            (7): BatchNorm2d(200, eps=1e-05, momentum=0.1, affine=True, track_running_stats=True)
          )
        )
        (1): SepConv(
          (op): Sequential(
            (0): ReLU()
            (1): Conv2d(200, 200, kernel_size=(3, 3), stride=(2, 2), padding=(1, 1), groups=200, bias=False)
            (2): Conv2d(200, 200, kernel_size=(1, 1), stride=(1, 1), bias=False)
            (3): BatchNorm2d(200, eps=1e-05, momentum=0.1, affine=True, track_running_stats=True)
            (4): ReLU()
            (5): Conv2d(200, 200, kernel_size=(3, 3), stride=(1, 1), padding=(1, 1), groups=200, bias=False)
            (6): Conv2d(200, 200, kernel_size=(1, 1), stride=(1, 1), bias=False)
            (7): BatchNorm2d(200, eps=1e-05, momentum=0.1, affine=True, track_running_stats=True)
          )
        )
        (2): SepConv(
          (op): Sequential(
            (0): ReLU()
            (1): Conv2d(200, 200, kernel_size=(5, 5), stride=(1, 1), padding=(2, 2), groups=200, bias=False)
            (2): Conv2d(200, 200, kernel_size=(1, 1), stride=(1, 1), bias=False)
            (3): BatchNorm2d(200, eps=1e-05, momentum=0.1, affine=True, track_running_stats=True)
            (4): ReLU()
            (5): Conv2d(200, 200, kernel_size=(5, 5), stride=(1, 1), padding=(2, 2), groups=200, bias=False)
            (6): Conv2d(200, 200, kernel_size=(1, 1), stride=(1, 1), bias=False)
            (7): BatchNorm2d(200, eps=1e-05, momentum=0.1, affine=True, track_running_stats=True)
          )
        )
        (3): SepConv(
          (op): Sequential(
            (0): ReLU()
            (1): Conv2d(200, 200, kernel_size=(5, 5), stride=(2, 2), padding=(2, 2), groups=200, bias=False)
            (2): Conv2d(200, 200, kernel_size=(1, 1), stride=(1, 1), bias=False)
            (3): BatchNorm2d(200, eps=1e-05, momentum=0.1, affine=True, track_running_stats=True)
            (4): ReLU()
            (5): Conv2d(200, 200, kernel_size=(5, 5), stride=(1, 1), padding=(2, 2), groups=200, bias=False)
            (6): Conv2d(200, 200, kernel_size=(1, 1), stride=(1, 1), bias=False)
            (7): BatchNorm2d(200, eps=1e-05, momentum=0.1, affine=True, track_running_stats=True)
          )
        )
        (4): DilConv(
          (op): Sequential(
            (0): ReLU()
            (1): Conv2d(200, 200, kernel_size=(5, 5), stride=(1, 1), padding=(4, 4), dilation=(2, 2), groups=200, bias=False)
            (2): Conv2d(200, 200, kernel_size=(1, 1), stride=(1, 1), bias=False)
            (3): BatchNorm2d(200, eps=1e-05, momentum=0.1, affine=True, track_running_stats=True)
          )
        )
        (5): SepConv(
          (op): Sequential(
            (0): ReLU()
            (1): Conv2d(200, 200, kernel_size=(3, 3), stride=(2, 2), padding=(1, 1), groups=200, bias=False)
            (2): Conv2d(200, 200, kernel_size=(1, 1), stride=(1, 1), bias=False)
            (3): BatchNorm2d(200, eps=1e-05, momentum=0.1, affine=True, track_running_stats=True)
            (4): ReLU()
            (5): Conv2d(200, 200, kernel_size=(3, 3), stride=(1, 1), padding=(1, 1), groups=200, bias=False)
            (6): Conv2d(200, 200, kernel_size=(1, 1), stride=(1, 1), bias=False)
            (7): BatchNorm2d(200, eps=1e-05, momentum=0.1, affine=True, track_running_stats=True)
          )
        )
        (6): SepConv(
          (op): Sequential(
            (0): ReLU()
            (1): Conv2d(200, 200, kernel_size=(5, 5), stride=(2, 2), padding=(2, 2), groups=200, bias=False)
            (2): Conv2d(200, 200, kernel_size=(1, 1), stride=(1, 1), bias=False)
            (3): BatchNorm2d(200, eps=1e-05, momentum=0.1, affine=True, track_running_stats=True)
            (4): ReLU()
            (5): Conv2d(200, 200, kernel_size=(5, 5), stride=(1, 1), padding=(2, 2), groups=200, bias=False)
            (6): Conv2d(200, 200, kernel_size=(1, 1), stride=(1, 1), bias=False)
            (7): BatchNorm2d(200, eps=1e-05, momentum=0.1, affine=True, track_running_stats=True)
          )
        )
        (7): SepConv(
          (op): Sequential(
            (0): ReLU()
            (1): Conv2d(200, 200, kernel_size=(5, 5), stride=(2, 2), padding=(2, 2), groups=200, bias=False)
            (2): Conv2d(200, 200, kernel_size=(1, 1), stride=(1, 1), bias=False)
            (3): BatchNorm2d(200, eps=1e-05, momentum=0.1, affine=True, track_running_stats=True)
            (4): ReLU()
            (5): Conv2d(200, 200, kernel_size=(5, 5), stride=(1, 1), padding=(2, 2), groups=200, bias=False)
            (6): Conv2d(200, 200, kernel_size=(1, 1), stride=(1, 1), bias=False)
            (7): BatchNorm2d(200, eps=1e-05, momentum=0.1, affine=True, track_running_stats=True)
          )
        )
      )
    )
    (10): Cell(
      (preprocess0): FactorizedReduce(
        (relu): ReLU()
        (conv_1): Conv2d(400, 100, kernel_size=(1, 1), stride=(2, 2), bias=False)
        (conv_2): Conv2d(400, 100, kernel_size=(1, 1), stride=(2, 2), bias=False)
        (bn): BatchNorm2d(200, eps=1e-05, momentum=0.1, affine=True, track_running_stats=True)
        (pad): ConstantPad2d(padding=(0, 1, 0, 1), value=0)
      )
      (preprocess1): ReLUConvBN(
        (op): Sequential(
          (0): ReLU()
          (1): Conv2d(800, 200, kernel_size=(1, 1), stride=(1, 1), bias=False)
          (2): BatchNorm2d(200, eps=1e-05, momentum=0.1, affine=True, track_running_stats=True)
        )
      )
      (_ops): ModuleList(
        (0): Identity()
        (1): Identity()
        (2): Identity()
        (3): SepConv(
          (op): Sequential(
            (0): ReLU()
            (1): Conv2d(200, 200, kernel_size=(5, 5), stride=(1, 1), padding=(2, 2), groups=200, bias=False)
            (2): Conv2d(200, 200, kernel_size=(1, 1), stride=(1, 1), bias=False)
            (3): BatchNorm2d(200, eps=1e-05, momentum=0.1, affine=True, track_running_stats=True)
            (4): ReLU()
            (5): Conv2d(200, 200, kernel_size=(5, 5), stride=(1, 1), padding=(2, 2), groups=200, bias=False)
            (6): Conv2d(200, 200, kernel_size=(1, 1), stride=(1, 1), bias=False)
            (7): BatchNorm2d(200, eps=1e-05, momentum=0.1, affine=True, track_running_stats=True)
          )
        )
        (4): SepConv(
          (op): Sequential(
            (0): ReLU()
            (1): Conv2d(200, 200, kernel_size=(3, 3), stride=(1, 1), padding=(1, 1), groups=200, bias=False)
            (2): Conv2d(200, 200, kernel_size=(1, 1), stride=(1, 1), bias=False)
            (3): BatchNorm2d(200, eps=1e-05, momentum=0.1, affine=True, track_running_stats=True)
            (4): ReLU()
            (5): Conv2d(200, 200, kernel_size=(3, 3), stride=(1, 1), padding=(1, 1), groups=200, bias=False)
            (6): Conv2d(200, 200, kernel_size=(1, 1), stride=(1, 1), bias=False)
            (7): BatchNorm2d(200, eps=1e-05, momentum=0.1, affine=True, track_running_stats=True)
          )
        )
        (5): Identity()
        (6): SepConv(
          (op): Sequential(
            (0): ReLU()
            (1): Conv2d(200, 200, kernel_size=(5, 5), stride=(1, 1), padding=(2, 2), groups=200, bias=False)
            (2): Conv2d(200, 200, kernel_size=(1, 1), stride=(1, 1), bias=False)
            (3): BatchNorm2d(200, eps=1e-05, momentum=0.1, affine=True, track_running_stats=True)
            (4): ReLU()
            (5): Conv2d(200, 200, kernel_size=(5, 5), stride=(1, 1), padding=(2, 2), groups=200, bias=False)
            (6): Conv2d(200, 200, kernel_size=(1, 1), stride=(1, 1), bias=False)
            (7): BatchNorm2d(200, eps=1e-05, momentum=0.1, affine=True, track_running_stats=True)
          )
        )
        (7): SepConv(
          (op): Sequential(
            (0): ReLU()
            (1): Conv2d(200, 200, kernel_size=(3, 3), stride=(1, 1), padding=(1, 1), groups=200, bias=False)
            (2): Conv2d(200, 200, kernel_size=(1, 1), stride=(1, 1), bias=False)
            (3): BatchNorm2d(200, eps=1e-05, momentum=0.1, affine=True, track_running_stats=True)
            (4): ReLU()
            (5): Conv2d(200, 200, kernel_size=(3, 3), stride=(1, 1), padding=(1, 1), groups=200, bias=False)
            (6): Conv2d(200, 200, kernel_size=(1, 1), stride=(1, 1), bias=False)
            (7): BatchNorm2d(200, eps=1e-05, momentum=0.1, affine=True, track_running_stats=True)
          )
        )
      )
    )
    (11): Cell(
      (preprocess0): ReLUConvBN(
        (op): Sequential(
          (0): ReLU()
          (1): Conv2d(800, 200, kernel_size=(1, 1), stride=(1, 1), bias=False)
          (2): BatchNorm2d(200, eps=1e-05, momentum=0.1, affine=True, track_running_stats=True)
        )
      )
      (preprocess1): ReLUConvBN(
        (op): Sequential(
          (0): ReLU()
          (1): Conv2d(800, 200, kernel_size=(1, 1), stride=(1, 1), bias=False)
          (2): BatchNorm2d(200, eps=1e-05, momentum=0.1, affine=True, track_running_stats=True)
        )
      )
      (_ops): ModuleList(
        (0): Identity()
        (1): Identity()
        (2): Identity()
        (3): SepConv(
          (op): Sequential(
            (0): ReLU()
            (1): Conv2d(200, 200, kernel_size=(5, 5), stride=(1, 1), padding=(2, 2), groups=200, bias=False)
            (2): Conv2d(200, 200, kernel_size=(1, 1), stride=(1, 1), bias=False)
            (3): BatchNorm2d(200, eps=1e-05, momentum=0.1, affine=True, track_running_stats=True)
            (4): ReLU()
            (5): Conv2d(200, 200, kernel_size=(5, 5), stride=(1, 1), padding=(2, 2), groups=200, bias=False)
            (6): Conv2d(200, 200, kernel_size=(1, 1), stride=(1, 1), bias=False)
            (7): BatchNorm2d(200, eps=1e-05, momentum=0.1, affine=True, track_running_stats=True)
          )
        )
        (4): SepConv(
          (op): Sequential(
            (0): ReLU()
            (1): Conv2d(200, 200, kernel_size=(3, 3), stride=(1, 1), padding=(1, 1), groups=200, bias=False)
            (2): Conv2d(200, 200, kernel_size=(1, 1), stride=(1, 1), bias=False)
            (3): BatchNorm2d(200, eps=1e-05, momentum=0.1, affine=True, track_running_stats=True)
            (4): ReLU()
            (5): Conv2d(200, 200, kernel_size=(3, 3), stride=(1, 1), padding=(1, 1), groups=200, bias=False)
            (6): Conv2d(200, 200, kernel_size=(1, 1), stride=(1, 1), bias=False)
            (7): BatchNorm2d(200, eps=1e-05, momentum=0.1, affine=True, track_running_stats=True)
          )
        )
        (5): Identity()
        (6): SepConv(
          (op): Sequential(
            (0): ReLU()
            (1): Conv2d(200, 200, kernel_size=(5, 5), stride=(1, 1), padding=(2, 2), groups=200, bias=False)
            (2): Conv2d(200, 200, kernel_size=(1, 1), stride=(1, 1), bias=False)
            (3): BatchNorm2d(200, eps=1e-05, momentum=0.1, affine=True, track_running_stats=True)
            (4): ReLU()
            (5): Conv2d(200, 200, kernel_size=(5, 5), stride=(1, 1), padding=(2, 2), groups=200, bias=False)
            (6): Conv2d(200, 200, kernel_size=(1, 1), stride=(1, 1), bias=False)
            (7): BatchNorm2d(200, eps=1e-05, momentum=0.1, affine=True, track_running_stats=True)
          )
        )
        (7): SepConv(
          (op): Sequential(
            (0): ReLU()
            (1): Conv2d(200, 200, kernel_size=(3, 3), stride=(1, 1), padding=(1, 1), groups=200, bias=False)
            (2): Conv2d(200, 200, kernel_size=(1, 1), stride=(1, 1), bias=False)
            (3): BatchNorm2d(200, eps=1e-05, momentum=0.1, affine=True, track_running_stats=True)
            (4): ReLU()
            (5): Conv2d(200, 200, kernel_size=(3, 3), stride=(1, 1), padding=(1, 1), groups=200, bias=False)
            (6): Conv2d(200, 200, kernel_size=(1, 1), stride=(1, 1), bias=False)
            (7): BatchNorm2d(200, eps=1e-05, momentum=0.1, affine=True, track_running_stats=True)
          )
        )
      )
    )
    (12): Cell(
      (preprocess0): ReLUConvBN(
        (op): Sequential(
          (0): ReLU()
          (1): Conv2d(800, 200, kernel_size=(1, 1), stride=(1, 1), bias=False)
          (2): BatchNorm2d(200, eps=1e-05, momentum=0.1, affine=True, track_running_stats=True)
        )
      )
      (preprocess1): ReLUConvBN(
        (op): Sequential(
          (0): ReLU()
          (1): Conv2d(800, 200, kernel_size=(1, 1), stride=(1, 1), bias=False)
          (2): BatchNorm2d(200, eps=1e-05, momentum=0.1, affine=True, track_running_stats=True)
        )
      )
      (_ops): ModuleList(
        (0): Identity()
        (1): Identity()
        (2): Identity()
        (3): SepConv(
          (op): Sequential(
            (0): ReLU()
            (1): Conv2d(200, 200, kernel_size=(5, 5), stride=(1, 1), padding=(2, 2), groups=200, bias=False)
            (2): Conv2d(200, 200, kernel_size=(1, 1), stride=(1, 1), bias=False)
            (3): BatchNorm2d(200, eps=1e-05, momentum=0.1, affine=True, track_running_stats=True)
            (4): ReLU()
            (5): Conv2d(200, 200, kernel_size=(5, 5), stride=(1, 1), padding=(2, 2), groups=200, bias=False)
            (6): Conv2d(200, 200, kernel_size=(1, 1), stride=(1, 1), bias=False)
            (7): BatchNorm2d(200, eps=1e-05, momentum=0.1, affine=True, track_running_stats=True)
          )
        )
        (4): SepConv(
          (op): Sequential(
            (0): ReLU()
            (1): Conv2d(200, 200, kernel_size=(3, 3), stride=(1, 1), padding=(1, 1), groups=200, bias=False)
            (2): Conv2d(200, 200, kernel_size=(1, 1), stride=(1, 1), bias=False)
            (3): BatchNorm2d(200, eps=1e-05, momentum=0.1, affine=True, track_running_stats=True)
            (4): ReLU()
            (5): Conv2d(200, 200, kernel_size=(3, 3), stride=(1, 1), padding=(1, 1), groups=200, bias=False)
            (6): Conv2d(200, 200, kernel_size=(1, 1), stride=(1, 1), bias=False)
            (7): BatchNorm2d(200, eps=1e-05, momentum=0.1, affine=True, track_running_stats=True)
          )
        )
        (5): Identity()
        (6): SepConv(
          (op): Sequential(
            (0): ReLU()
            (1): Conv2d(200, 200, kernel_size=(5, 5), stride=(1, 1), padding=(2, 2), groups=200, bias=False)
            (2): Conv2d(200, 200, kernel_size=(1, 1), stride=(1, 1), bias=False)
            (3): BatchNorm2d(200, eps=1e-05, momentum=0.1, affine=True, track_running_stats=True)
            (4): ReLU()
            (5): Conv2d(200, 200, kernel_size=(5, 5), stride=(1, 1), padding=(2, 2), groups=200, bias=False)
            (6): Conv2d(200, 200, kernel_size=(1, 1), stride=(1, 1), bias=False)
            (7): BatchNorm2d(200, eps=1e-05, momentum=0.1, affine=True, track_running_stats=True)
          )
        )
        (7): SepConv(
          (op): Sequential(
            (0): ReLU()
            (1): Conv2d(200, 200, kernel_size=(3, 3), stride=(1, 1), padding=(1, 1), groups=200, bias=False)
            (2): Conv2d(200, 200, kernel_size=(1, 1), stride=(1, 1), bias=False)
            (3): BatchNorm2d(200, eps=1e-05, momentum=0.1, affine=True, track_running_stats=True)
            (4): ReLU()
            (5): Conv2d(200, 200, kernel_size=(3, 3), stride=(1, 1), padding=(1, 1), groups=200, bias=False)
            (6): Conv2d(200, 200, kernel_size=(1, 1), stride=(1, 1), bias=False)
            (7): BatchNorm2d(200, eps=1e-05, momentum=0.1, affine=True, track_running_stats=True)
          )
        )
      )
    )
    (13): Cell(
      (preprocess0): ReLUConvBN(
        (op): Sequential(
          (0): ReLU()
          (1): Conv2d(800, 200, kernel_size=(1, 1), stride=(1, 1), bias=False)
          (2): BatchNorm2d(200, eps=1e-05, momentum=0.1, affine=True, track_running_stats=True)
        )
      )
      (preprocess1): ReLUConvBN(
        (op): Sequential(
          (0): ReLU()
          (1): Conv2d(800, 200, kernel_size=(1, 1), stride=(1, 1), bias=False)
          (2): BatchNorm2d(200, eps=1e-05, momentum=0.1, affine=True, track_running_stats=True)
        )
      )
      (_ops): ModuleList(
        (0): Identity()
        (1): Identity()
        (2): Identity()
        (3): SepConv(
          (op): Sequential(
            (0): ReLU()
            (1): Conv2d(200, 200, kernel_size=(5, 5), stride=(1, 1), padding=(2, 2), groups=200, bias=False)
            (2): Conv2d(200, 200, kernel_size=(1, 1), stride=(1, 1), bias=False)
            (3): BatchNorm2d(200, eps=1e-05, momentum=0.1, affine=True, track_running_stats=True)
            (4): ReLU()
            (5): Conv2d(200, 200, kernel_size=(5, 5), stride=(1, 1), padding=(2, 2), groups=200, bias=False)
            (6): Conv2d(200, 200, kernel_size=(1, 1), stride=(1, 1), bias=False)
            (7): BatchNorm2d(200, eps=1e-05, momentum=0.1, affine=True, track_running_stats=True)
          )
        )
        (4): SepConv(
          (op): Sequential(
            (0): ReLU()
            (1): Conv2d(200, 200, kernel_size=(3, 3), stride=(1, 1), padding=(1, 1), groups=200, bias=False)
            (2): Conv2d(200, 200, kernel_size=(1, 1), stride=(1, 1), bias=False)
            (3): BatchNorm2d(200, eps=1e-05, momentum=0.1, affine=True, track_running_stats=True)
            (4): ReLU()
            (5): Conv2d(200, 200, kernel_size=(3, 3), stride=(1, 1), padding=(1, 1), groups=200, bias=False)
            (6): Conv2d(200, 200, kernel_size=(1, 1), stride=(1, 1), bias=False)
            (7): BatchNorm2d(200, eps=1e-05, momentum=0.1, affine=True, track_running_stats=True)
          )
        )
        (5): Identity()
        (6): SepConv(
          (op): Sequential(
            (0): ReLU()
            (1): Conv2d(200, 200, kernel_size=(5, 5), stride=(1, 1), padding=(2, 2), groups=200, bias=False)
            (2): Conv2d(200, 200, kernel_size=(1, 1), stride=(1, 1), bias=False)
            (3): BatchNorm2d(200, eps=1e-05, momentum=0.1, affine=True, track_running_stats=True)
            (4): ReLU()
            (5): Conv2d(200, 200, kernel_size=(5, 5), stride=(1, 1), padding=(2, 2), groups=200, bias=False)
            (6): Conv2d(200, 200, kernel_size=(1, 1), stride=(1, 1), bias=False)
            (7): BatchNorm2d(200, eps=1e-05, momentum=0.1, affine=True, track_running_stats=True)
          )
        )
        (7): SepConv(
          (op): Sequential(
            (0): ReLU()
            (1): Conv2d(200, 200, kernel_size=(3, 3), stride=(1, 1), padding=(1, 1), groups=200, bias=False)
            (2): Conv2d(200, 200, kernel_size=(1, 1), stride=(1, 1), bias=False)
            (3): BatchNorm2d(200, eps=1e-05, momentum=0.1, affine=True, track_running_stats=True)
            (4): ReLU()
            (5): Conv2d(200, 200, kernel_size=(3, 3), stride=(1, 1), padding=(1, 1), groups=200, bias=False)
            (6): Conv2d(200, 200, kernel_size=(1, 1), stride=(1, 1), bias=False)
            (7): BatchNorm2d(200, eps=1e-05, momentum=0.1, affine=True, track_running_stats=True)
          )
        )
      )
    )
  )
  (auxiliary_head): AuxiliaryHeadImageNet(
    (features): Sequential(
      (0): ReLU(inplace)
      (1): AvgPool2d(kernel_size=5, stride=2, padding=0)
      (2): Conv2d(800, 128, kernel_size=(1, 1), stride=(1, 1), bias=False)
      (3): BatchNorm2d(128, eps=1e-05, momentum=0.1, affine=True, track_running_stats=True)
      (4): ReLU(inplace)
      (5): Conv2d(128, 768, kernel_size=(2, 2), stride=(1, 1), bias=False)
      (6): ReLU(inplace)
    )
    (classifier): Linear(in_features=768, out_features=1000, bias=True)
  )
  (global_pooling): AvgPool2d(kernel_size=7, stride=7, padding=0)
  (classifier): Linear(in_features=800, out_features=1000, bias=True)
)
Parameters : 6.609947 - 1.264872 = 5.345 MB
config        : Configure(type='steplr', batch_size=128, epochs=250, decay_period=1, gamma=0.97, momentum=0.9, decay=3e-05, LR=0.1, label_smooth=0.1, auxiliary=True, auxiliary_weight=0.4, grad_clip=5.0, drop_path_prob=0.0)
genotype      : Genotype(normal=[('skip_connect', 0, 0.13017432391643524), ('skip_co
…
